Simulations/Pendulum/results/model_ERTSNet_chop.pt (torch, 664875 bytes, 34 tensors)

weight f4 [320, 6]
-0.3146917 0.32678026 0.059720222 0.03763798 -0.11794793 0.38259175 0.34084517 -0.2100531
0.0028877184 0.28811693 -0.30037647 -0.21291035 -0.15972227 -0.27960962 0.28389144 -0.37950066
-0.23319449 -0.10020872 0.21698259 0.3283967 -0.10358373 -0.35068786 0.26844975 -0.116622165
-0.11024173 -0.26595905 0.2550086 -0.29794934 -0.15793611 0.2264004 0.028141221 -0.35322908
0.30211526 0.21882291 -0.080375195 -0.3159929 -0.06014145 0.15964673 0.100868225 0.16258545
0.30120614 -0.14193495 0.25029364 -0.07279314 0.08440619 0.27475926 0.022033917 -0.11689278
0.1437151 0.11671491 -0.2966436 -0.17024456 0.13374579 0.09428175 -0.30376026 -0.099737994
-0.24330132 -0.018989999 -0.10646257 -0.26090613 0.18424831 -0.08119917 -0.096862875 -0.04627718
0.233422 0.29494852 -0.30249706 0.3741563 0.16038418 0.103283435 -0.29506975 -0.31765705
-0.08743164 -0.08052264 0.045834135 0.3854785 -0.39875612 -0.098559976 0.37183648 -0.2844621
0.027812112 0.27061683 0.14546324 0.004356253 0.15397689 -0.32088125 0.061238717 -0.29443812
-0.045421507 0.36564463 -0.12663412 -0.19939664 0.35148633 0.38535598 -0.172652 0.3802327
0.21995032 -0.12410236 -0.3742378 0.38000923 0.05350463 -0.049871534 -0.16897708 -0.27358553
-0.148777 0.071895 0.035449836 0.34610373 0.19525814 0.15239303 0.028801298 -0.12042738
-0.013098499 -0.28362975 -0.09591619 -0.06026483 0.18505722 0.2815507 0.2382332 0.39433983
-0.35803795 -0.22553466 0.22077271 -0.031361796 0.4076291 -0.3641696 -0.37675133 0.11631774
-0.069902495 -0.18465462 0.301558 0.20554401 -0.3565053 -0.31987125 -0.074646406 0.10387724
0.07326588 -0.20602733 0.13772847 -0.26138648 -0.1757848 -0.2633853 -0.19759487 0.047535185
-0.20166408 -0.29410765 0.065292515 0.2586905 -0.27745908 -0.20523988 -0.3516431 0.103258006
-0.33153442 -0.32952297 -0.32811394 0.022081267 -0.34598425 -0.29287001 0.36654165 0.38183528
0.32793912 -0.26364902 0.3430793 0.013520234 0.3798132 -0.15666199 -0.2591851 -0.010840166
-0.15524574 -0.1873703 -0.34554246 0.07670359 -0.0048859264 0.26791313 0.3055656 -0.07416182
-0.35642806 -0.30797195 -0.3048856 -0.2989335 -0.25085527 0.24772787 0.05304849 0.27002943
0.3566186 0.21692473 -0.20268671 -0.05485428 0.3089737 0.16156997 -0.3047612 -0.23862097
-0.37453696 0.30976647 -0.24004175 -0.1725826 0.030850759 -0.23814945 -0.18536149 -0.026861379
0.36131254 0.28735906 0.18670033 -0.25397676 0.17391658 0.22856928 0.25627273 0.01436567
-0.05781498 0.25845432 -0.27037728 0.00596167 0.14852107 0.06057839 0.20765719 0.3673866
-0.20084545 -0.112349205 0.3138944 0.1697266 -0.2713477 -0.37644237 -0.27198157 0.12948269
-0.023602197 0.025266774 0.3806584 0.22331761 0.12605284 -0.28395784 0.2197821 0.08656228
0.28719154 0.23188154 0.053404316 -0.26702464 -0.045172974 -0.075705886 -0.3955293 -0.10767065
-0.26745394 0.32125556 0.24819286 -0.15929484 -0.35188863 -0.30465198 0.38107687 0.0007645576
-0.35236567 -0.38085938 0.033081282 0.12813742 -0.1729868 0.27178898 0.26557887 -0.13298227
00000000: 451f a1be be4f a73e 319d 743d 482a 1a3d
00000010: af8e f1bd 11e3 c33e 4283 ae3e 2918 57be
00000020: e03f 3d3b 1084 933e f2ca 99be 2c05 5abe
00000030: 3c8e 23be fe28 8fbe 385a 913e e94d c2be
00000040: 89ca 6ebe 3b3a cdbd af30 5e3e 9d23 a83e
00000050: b523 d4bd 5c8d b3be 3f72 893e 9ad7 eebd
00000060: 6bc6 e1bd c92b 88be 7d90 823e d18c 98be
00000070: 01ba 21be 82d5 673e 6b88 e63c 71da b4be
00000080: daae 9a3e 1d13 603e c09b a4bd d2c9 a1be
00000090: e256 76bd 6f7a 233e 0094 ce3d cd7c 263e
000000a0: b137 9a3e 6557 11be 7d26 803e 9214 95bd
000000b0: 27dd ac3d 3fad 8c3e 7980 b43c 7b65 efbd
000000c0: 0d2a 133e 3a08 ef3d ace1 97be 9754 2ebe
000000d0: a8f4 083e ca16 c13d 7786 9bbe 6f43 ccbd
000000e0: fb23 79be ea90 9bbc 0c09 dabd 7d95 85be
000000f0: 97ab 3c3e c04b a6bd 0b60 c6bd 248d 3dbd
00000100: 2d06 6f3e 7e03 973e e5e0 9abe 6a91 bf3e
00000110: c03b 243e 4486 d33d 6213 97be f2a3 a2be
00000120: 5c0f b3bd 0ee9 a4bd 93bc 3b3d 705d c53e
00000130: c329 ccbe d0d9 c9bd 5a61 be3e 04a5 91be
00000140: 3ad6 e33c 4a8e 8a3e 51f4 143e e6be 8e3b
00000150: 1eac 1d3e 8c4a a4be 73d5 7a3d 98c0 96be
00000160: e70b 3abd c635 bb3e 60ac 01be a22e 4cbe
00000170: 04f6 b33e 614d c53e b0cb 30be dcad c23e
00000180: a83a 613e 6129 febd 199c bfbe 9290 c23e
00000190: ac27 5b3d 1846 4cbd 5408 2dbe 6713 8cbe
000001a0: ff58 18be b03d 933d d933 113d 8234 b13e
000001b0: c0f1 473e eb0c 1c3e b3f0 eb3c a1a2 f6bd
000001c0: 169b 56bc eb37 91be b56f c4bd 41d8 76bd
000001d0: a47f 3d3e 6a27 903e 67f3 733e e9e6 c93e
000001e0: c050 b7be 8ff2 66be 3e12 623e 3a75 00bd
000001f0: c3b4 d03e 7074 babe 8de5 c0be ff37 ee3d
00000200: 0a29 8fbd 1a16 3dbe cf65 9a3e 217a 523e
00000210: dd87 b6be 2ac6 a3be 37e0 98bd 97bd d43d
00000220: 6c0c 963d d4f8 52be b108 0d3e 73d4 85be
00000230: ee00 34be 70da 86be 4f56 4abe 41b4 423d
00000240: 0781 4ebe 4795 96be 15b8 853d 1573 843e
00000250: 1e0f 8ebe 672a 52be 900a b4be ef78 d33d
00000260: e1be a9be 3cb7 a8be 8dfe a7be c6e3 b43c
00000270: d924 b1be 0ff3 95be 59ab bb3e ea7f c33e
00000280: a3e7 a73e 01fd 86be 17a8 af3e f983 5d3c
00000290: e076 c23e 006c 20be e9b3 84be f49a 31bc
000002a0: bdf8 1ebe 00de 3fbe f1ea b0be c616 9d3d
000002b0: 1f1a a0bb e92b 893e 1873 9c3e 27e2 97bd
000002c0: bd7d b6be 80ae 9dbe f719 9cbe d00d 99be
000002d0: 1a70 80be 60ac 7d3e 6049 593d 4c41 8a3e
000002e0: b796 b63e 8421 5e3e 1b8d 4fbe e2ae 60bd
000002f0: cd31 9e3e 9972 253e a909 9cbe 0e59 74be
00000300: 4fc3 bfbe b699 9e3e 81cd 75be 7eb9 30be
00000310: bbba fc3c 73dd 73be 67cf 3dbe 650c dcbc
00000320: f5fd b83e ba20 933e 5f2e 3f3e 3e09 82be
00000330: 3017 323e 110e 6a3e 2e36 833e fd5d 6b3c
00000340: 67cf 6cbd 2054 843e e46e 8abe 1d5a c33b
00000350: e815 183e 0c21 783d 16a4 543e 191a bc3e
00000360: 6eaa 4dbe 5717 e6bd c4b6 a03e cfcc 2d3e
00000370: 16ee 8abe 0ebd c0be 2b41 8bbe 1c97 043e
00000380: 6559 c1bc 44fc ce3c a8e5 c23e 5fad 643e
00000390: ff13 013e ec62 91be 8f0e 613e 9147 b13d
000003a0: c50a 933e 5b72 6d3e 7cbe 5a3d 74b7 88be
000003b0: 4c07 39bd b00b 9bbd d182 cabe 6e82 dcbd
000003c0: b9ef 88be 9c7b a43e 4526 7e3e 301e 23be
000003d0: bf2a b4be 58fb 9bbe 821c c33e 986c 483a
000003e0: 4669 b4be 0000 c3be 3d80 073d 7536 033e
000003f0: 7423 31be ed27 8b3e f4f9 873e 812c 08be

bias f4 [320]
0.38971883 0.06455086 0.36933094 0.24275658 0.22109021 -0.00826264 -0.20234738 -0.29700246
-0.06649002 -0.08985846 -0.36209655 -0.1895475 0.22245565 -0.046204146 -0.15006709 0.36767158
0.14251131 -0.18024057 -0.049679507 -0.13846618 -0.040665664 -0.16196322 -0.346892 0.2600334
-0.24505045 -0.26627702 0.09056131 -0.22048987 -0.03840449 -0.33623907 0.11894026 -0.11002406
0.05919315 -0.27248216 -0.086311355 -0.2128501 0.11658947 0.3889797 -0.15724765 -0.057163324
0.09455491 0.11144927 0.32465932 -0.16392592 -0.24219047 -0.12769066 -0.28655207 -0.0950906
-0.071812324 -0.1099574 -0.23469381 -0.08962547 -0.22118875 -0.0024147923 -0.096877635 -0.41491845
-0.2710124 -0.28658992 -0.24765135 -0.19262695 0.3950853 0.261113 0.24357493 0.26062948
-0.16273123 0.3954098 -0.07226228 -0.26025823 -0.24467674 -0.22652598 0.343556 0.39915213
0.060535565 0.3260826 0.07977512 -0.12968408 -0.16462405 -0.13496691 -0.15966974 -0.16387364
-0.16522564 -0.40685096 -0.17786634 -0.22070199 0.020375695 -0.036240082 0.14477906 -0.23625302
0.31126252 -0.20516548 -0.33244088 -0.27312374 -0.3126407 -0.19362186 -0.17859522 0.03453241
0.013898302 0.18394116 -0.3362841 -0.1590583 -0.25827023 0.08353546 -0.008060386 -0.21023981
0.0779685 -0.27778044 0.32698256 0.28513777 0.31704015 0.33667555 -0.010465766 -0.0012167044
0.34458357 -0.38598883 0.22646871 0.13535112 0.012724601 0.1090907 0.3154837 0.3070314
-0.23274566 -0.13470218 -0.3234754 0.39606068 -0.33938447 -0.32732958 -0.31588757 -0.23641744
0.18767771 0.23201329 0.21482001 -0.3220166 0.1252728 0.32335246 0.20137617 -0.23689914
0.04459836 -0.17897719 0.051913545 -0.3272847 0.2273848 -0.3410361 0.3953947 0.21081638
-0.1541482 0.11043079 -0.35424268 0.292194 0.15792015 -0.19223937 0.16569653 0.33830857
-0.074921176 0.062469225 -0.30160338 -0.010587658 -0.047853723 0.20027852 -0.11085058 -0.18219735
0.2415414 0.23323007 0.022713028 0.072893895 0.023786046 -0.21311358 -0.40431562 0.11911231
0.3873178 -0.21848494 -0.15573813 -0.39125586 0.41783884 -0.39599442 0.35696173 -0.12281504
-0.17367882 -0.32812232 0.091729544 0.38740128 -0.0809298 -0.14898033 -0.35365444 0.039679192
0.038047504 -0.3649351 -0.084668376 0.24402553 -0.38241252 0.3966272 -0.1996599 -0.37200496
0.022253523 0.13955924 -0.29654917 0.29335964 -0.37071824 0.0664233 0.10235842 -0.3207921
0.07202136 0.061485186 -0.37203836 0.15537298 0.3885338 0.34418988 0.11822114 0.2995768
0.22684397 -0.123600766 0.30294085 -0.21735564 -0.11398428 -0.13285333 -0.1996912 0.20677766
0.37637123 -0.3834581 -0.0123210475 0.1107834 -0.0033042482 0.061759572 0.39331305 0.08301857
-0.33650923 0.29978365 -0.28578052 0.11728283 0.018255053 0.3232819 -0.16813874 0.29015028
-0.21290666 -0.17421955 0.1381491 0.10665544 -0.29287606 0.058213886 -0.3622351 0.4097501
-0.06327358 0.38433143 0.024312982 0.24731894 -0.09384715 0.39234275 -0.37343842 0.014557029
0.28529045 0.18109947 0.17693968 0.041197643 0.4080344 -0.20078133 -0.37965462 0.21036032
00000000: 3a89 c73e 3e33 843d f218 bd3e 2e95 783e
00000010: 7965 623e 0660 07bc 2734 4fbe b510 98be
00000020: eb2b 88bd b607 b8bd b864 b9be bd18 42be
00000030: 6acb 633e 8f40 3dbd 30ab 19be 733f bc3e
00000040: 7cee 113e fc90 38be bd7c 4bbd 14ca 0dbe
00000050: 0a91 26bd b0d9 25be d49b b1be 1923 853e
00000060: 81ee 7abe 7655 88be 3578 b93d 19c8 61be
00000070: 074e 1dbd 8727 acbe f396 f33d 4b54 e1bd
00000080: 8474 723d c882 8bbe 02c4 b0bd 60f5 59be
00000090: 76c6 ee3d 5928 c73e 8705 21be 1724 6abd
000000a0: 01a6 c13d 843f e43d bf39 a63e 32dc 27be
000000b0: c700 78be 57c1 02be f4b6 92be dcbe c2bd
000000c0: 5712 93bd 5831 e1bd 9353 70be 8f8d b7bd
000000d0: 4e7f 62be 7e41 1ebb c867 c6bd 3170 d4be
000000e0: 23c2 8abe eabb 92be 5198 7dbe 0040 45be
000000f0: 9f48 ca3e 9ab0 853e b56b 793e 3a71 853e
00000100: 04a3 26be 2773 ca3e 3ffe 93bd 9140 85be
00000110: 8a8c 7abe 6df6 67be 92e6 af3e ab5d cc3e
00000120: 24f4 773d 4cf4 a63e 2361 a33d e7cb 04be
00000130: 3593 28be c434 0abe 7780 23be 7ece 27be
00000140: e930 29be c54e d0be 9822 36be b4ff 61be
00000150: eeea a63c 7b70 14bd f640 143e 50ec 71be
00000160: cd5d 9f3e e616 52be b135 aabe e0d6 8bbe
00000170: 7112 a0be cf44 46be aae1 36be db71 0d3d
00000180: b4b5 633c 125b 3c3e 6e2d acbe 2ee0 22be
00000190: ff3b 84be a414 ab3d b60f 04bc 1b49 57be
000001a0: f3ad 9f3d 3d39 8ebe 426a a73e 94fd 913e
000001b0: 1653 a23e bd60 ac3e 9b78 2bbc d379 9fba
000001c0: 426d b03e 54a0 c5be 6ae7 673e 7c99 0a3e
000001d0: d87a 503c f26a df3d 1487 a13e 3833 9d3e
000001e0: e154 6ebe 5eef 09be 919e a5be 77c8 ca3e
000001f0: cdc3 adbe be97 a7be 04bc a1be 6a17 72be
00000200: 962e 403e e494 6d3e c7f9 5b3e 5cdf a4be
00000210: 8347 003e 748e a53e 8e35 4e3e b095 72be
00000220: c5ac 363d cc45 37be 4ca3 543d dc91 a7be
00000230: 90d7 683e 499c aebe 2d71 ca3e 40e0 573e
00000240: 07d9 1dbe 8a29 e23d 4c5f b5be 749a 953e
00000250: d2b5 213e 66da 44be 5aac 293e c836 ad3e
00000260: 4670 99bd bbdf 7f3d c26b 9abe db77 2dbc
00000270: 4402 44bd d015 4d3e a105 e3bd f191 3abe
00000280: a156 773e ddd3 6e3e ac10 ba3c 6549 953d
00000290: f4da c23c 723a 5abe 7502 cfbe 28f1 f33d
000002a0: 854e c63e 84ba 5fbe d179 1fbe b052 c8be
000002b0: f9ee d53e c8bf cabe b0c3 b63e 7486 fbbd
000002c0: dcd8 31be a6ff a7be b3dc bb3d 7659 c63e
000002d0: 86be a5bd 4d8e 18be 3212 b5be a686 223d
000002e0: b3d7 1b3d c6d8 babe 9d66 adbd d4e1 793e
000002f0: 93cb c3be b812 cb3e a573 4cbe 6f77 bebe
00000300: 054d b63c 9ee8 0e3e 4bd5 97be 3c33 963e
00000310: c8ce bdbe f008 883d 4ba1 d13d dd3e a4be
00000320: ef7f 933d e4d7 7b3d d07b bebe 181a 1f3e
00000330: e7ed c63e a839 b03e ed1d f23d 2162 993e
00000340: c949 683e 6622 fdbd 101b 9b3e 7a92 5ebe
00000350: 9770 e9bd b40a 08be da7b 4cbe 86bd 533e
00000360: bbb3 c03e 9f54 c4be 38de 49bc 68e2 e23d
00000370: 168c 58bb 9bf7 7c3d 5460 c93e a405 aa3d
00000380: f04a acbe 3e7d 993e d351 92be fb31 f03d
00000390: 9f8b 953c 3585 a53e 902c 2cbe 948e 943e
000003a0: 3404 5abe 9c66 32be f576 0d3e 2b6e da3d
000003b0: daf3 95be af71 6e3d e176 b9be c4ca d13e
000003c0: 9495 81bd 17c7 c43e 052c c73c 2d41 7d3e
000003d0: ef32 c0bd 26e1 c83e 5233 bfbe 9b80 6e3c
000003e0: 9711 923e 2472 393e ad2f 353e dcbe 283d
000003f0: e3e9 d03e 9f99 4dbe 1762 c2be b268 573e

weight_ih_l0 f4 [240, 320]
0.06606863 0.09277201 0.045789823 -0.040222365 0.03211503 0.071569756 -0.012014707 0.080968805
0.030076541 -0.0223178 0.051515587 -0.06525763 -0.03407782 0.0031648984 0.06019641 -0.0039727394
-0.060292467 0.003419246 0.059948135 0.039908487 -0.05901933 0.06703046 0.0035582113 -0.011821486
0.06968338 -0.035054952 0.08907671 0.008806584 0.01761904 0.058199245 0.016339395 -0.034507934
0.075380735 0.023272606 0.04665756 0.04450804 -0.003305483 0.08982546 0.0033500157 -0.05871621
-0.0014237178 -0.06739189 -0.091295496 0.02049339 -0.005420099 0.018579908 -0.014012228 -0.07444595
-0.018983612 -0.041237496 0.053814296 0.017155956 0.03692293 -0.047848143 -0.015529127 0.014994751
-0.014313803 -0.02270447 -0.002223632 -0.018361468 0.02300075 -0.02986817 0.0017012126 -0.019134913
0.031057207 0.07840481 -0.08894434 0.013555808 0.058075305 0.017733296 0.0316428 -0.056400046
-0.047058955 0.011124672 -0.036582008 0.04808279 0.031184841 0.033326376 0.046756838 0.024522722
0.08045374 -0.020813098 0.004431468 -0.02721325 0.05955131 -0.085189074 -0.025316644 -0.010858108
-0.016159298 0.07248157 -0.034808494 -0.0086237695 0.0152223995 0.06099092 0.032492425 -0.07956749
0.053046204 -0.031027507 -0.03083299 -0.028654356 -0.045045614 -0.009271296 -0.04474352 0.040392514
-0.06396461 0.038585052 -0.0695628 0.09480884 0.062879615 0.0055855154 0.04100655 0.035099816
0.08325768 -0.03439977 -0.06837993 0.054504 -0.024257347 0.0031883344 0.074304044 -0.0883424
0.065567665 0.020334048 0.00022544549 0.0016680751 0.006609992 0.011633816 0.019472172 -0.073185496
0.10648881 0.09391829 0.101691365 0.03315675 -0.029062277 -0.064011 -0.0191301 0.03074939
-0.057908684 0.011873856 0.035188593 0.07031204 -0.08631628 -0.028643662 0.07283337 0.106872946
-0.034526005 -0.07772053 -0.012334798 -0.06270936 -0.047429048 0.0063306326 -0.035146303 0.07205436
0.034271684 -0.08131545 -0.005755496 0.005272032 0.054053042 0.024728876 0.055319946 -0.05898613
0.052209318 -0.01592393 0.0710008 0.021173108 0.007777619 0.0039860182 0.053267743 0.019835202
0.050363068 -0.045823827 0.055766754 0.03228818 -0.04726252 0.03256495 -0.050766595 -0.055106316
-0.031410154 -0.056794744 0.011650962 -0.04943692 -0.039573073 -0.024579138 -0.0019181407 0.0020669552
-0.0028455288 0.061529566 0.0053103827 0.100819476 -0.02533894 0.0999383 0.05696829 -0.00031509923
-0.046339028 0.03143355 -0.005514031 -0.05133478 -0.04169911 -0.008391855 -0.032922335 -0.039146323
0.051405627 0.018308572 -0.01080609 -0.058409248 -0.07419409 -0.013791608 -0.055502255 0.0876568
0.07557686 -0.023284888 -0.022120079 -0.037669696 0.033160478 0.07472726 0.0023888526 -0.028049404
0.034684345 0.015131165 0.08007296 -0.060105614 -0.05511713 0.060812585 0.058439266 0.073339
-0.060001265 0.10716815 -0.036660187 0.10080661 0.045846812 -0.050095126 0.010088243 0.0718322
0.08866212 -0.019738674 0.015133776 -0.0014025818 0.02883274 -0.043868072 0.020707937 -0.042413227
0.030105945 0.00272143 -0.0594588 -0.047833957 -0.0032111055 0.029288426 0.05478249 -0.08034388
-0.002487449 -0.08574113 0.015838163 0.0058564222 0.028460857 -0.037748627 -0.005842762 0.027855987
00000000: fd4e 873d 40ff bd3d 1c8e 3b3d 35c0 24bd
00000010: 0d8b 033d 2a93 923d 55d9 44bc f9d2 a53d
00000020: 1463 f63c d2d3 b6bc 0202 533d cba5 85bd
00000030: 2f95 0bbd 2f6a 4f3b 8390 763d c12d 82bb
00000040: 3cf5 76bd 6e15 603b 2d8c 753d 1577 233d
00000050: 41be 71bd 4447 893d e130 693b e8ae 41bc
00000060: 29b6 8e3d c895 0fbd da6d b63d 7e49 103c
00000070: ce55 903c 5562 6e3d 32da 853c 3158 0dbd
00000080: 3761 9a3d 31a6 be3c ff1b 3f3d 104e 363d
00000090: cda0 58bb 69f6 b73d f08b 5b3b 6980 70bd
000000a0: 0b9c baba c204 8abd 22f9 babd c1e1 a73c
000000b0: 169b b1bb e434 983c 8b93 65bc 1e77 98bd
000000c0: 8583 9bbc a6e8 28bd 616c 5c3d a68a 8c3c
000000d0: 803c 173d 6afc 43bd e16d 7ebc 8bac 753c
000000e0: 7184 6abc bafe b9bc 5bba 11bb ca6a 96bc
000000f0: 126c bc3c 18ae f4bc 39fb de3a d2c0 9cbc
00000100: af6b fe3c b392 a03d 7328 b6bd 2e19 5e3c
00000110: 5fe0 6d3d 6b45 913c e19b 013d bc03 67bd
00000120: e4c0 40bd 4244 363c 04d7 15bd 76f2 443d
00000130: 5a77 ff3c 3d81 083d 1984 3f3d e0e3 c83c
00000140: eec4 a43d 3b80 aabc d935 913b 52ee debc
00000150: 13ec 733d 9c77 aebd da64 cfbc 35e6 31bc
00000160: 8160 84bc 3871 943d 5a93 0ebd b64a 0dbc
00000170: 5f67 793c 9dd1 793d c716 053d 48f4 a2bd
00000180: fa46 593d 662d febc 7795 fcbc 8abc eabc
00000190: c081 38bd a2e6 17bc fb44 37bd 9f72 253d
000001a0: e1ff 82bd 5c0b 1e3d f176 8ebd 232b c23d
000001b0: 07c7 803d b306 b73b 7cf6 273d d3c4 0f3d
000001c0: 0183 aa3d c6e6 0cbd c70a 8cbd 963f 5f3d
000001d0: 58b7 c6bc 60f3 503b b82c 983d dcec b4bd
000001e0: 5748 863d 9793 a63c 9065 6c39 50a3 da3a
000001f0: a298 d83b c39b 3e3c 1b84 9f3c 47e2 95bd
00000200: ce16 da3d 3c58 c03d 9043 d03d 5fcf 073d
00000210: 0314 eebc 3318 83bd bab6 9cbc 25e6 fb3c
00000220: a831 6dbd 908a 423c ea21 103d c2ff 8f3d
00000230: 97c6 b0bd 1da6 eabc a929 953d 34e0 da3d
00000240: 246b 0dbd f12b 9fbd e517 4abc c46d 80bd
00000250: f644 42bd 3271 cf3b 92f5 0fbd 3c91 933d
00000260: 7760 0c3d b788 a6bd 9a98 bcbb 03c1 ac3b
00000270: b966 5d3d 3694 ca3c 2b97 623d 719b 71bd
00000280: 70d9 553d e772 82bc de68 913d 3a73 ad3c
00000290: 66db fe3b 259d 823b 472f 5a3d 6f7d a23c
000002a0: 8149 4e3d c4b1 3bbd ae6b 643d 9c40 043d
000002b0: 5896 41bd d362 053d a2f0 4fbd 29b7 61bd
000002c0: efa7 00bd 9ba1 68bd ade3 3e3c 5e7e 4abd
000002d0: 6017 22bd 305a c9bc 1f6a fbba c175 073b
000002e0: 0d7c 3abb 6d06 7c3d b802 ae3b 717a ce3d
000002f0: 9c93 cfbc 74ac cc3d 9557 693d e733 a5b9
00000300: fecd 3dbd 77c0 003d 0baf b4bb 6b44 52bd
00000310: b0cc 2abd fe7d 09bc 92d9 06bd e557 20bd
00000320: b58e 523d dcfb 953c 070c 31bc 893e 6fbd
00000330: 12f3 97bd 32f6 61bc 5556 63bd 6985 b33d
00000340: 0ac8 9a3d f3bf bebc 2b35 b5bc 8a4b 1abd
00000350: 48d3 073d 9b0a 993d 4c8e 1c3b ddc7 e5bc
00000360: 2c11 0e3d b5e8 773c 4bfd a33d 4e31 76bd
00000370: 80c2 61bd 9e16 793d 035e 6f3d c232 963d
00000380: e3c3 75bd fa7a db3d fe28 16bd b273 ce3d
00000390: dec9 3b3d 8c30 4dbd 2849 253c c31c 933d
000003a0: 7c94 b53d 00b3 a1bc a8f3 773c d6d6 b7ba
000003b0: a332 ec3c 02af 33bd b1a3 a93c 7eb9 2dbd
000003c0: bea0 f63c 055a 323b 128b 73bd 8aed 43bd
000003d0: 6971 52bb 48ee ef3c 9b63 603d 558b a4bd
000003e0: 7804 23bb 0c99 afbd 09bf 813c 3be7 bf3b
000003f0: be26 e93c 4e9e 1abd a474 bfbb 3d32 e43c

weight_hh_l0 f4 [240, 80]
0.06497351 -0.014911308 -0.013163473 0.06461215 0.051695995 0.025799591 -0.034641158 -0.016554711
0.04669038 0.020044934 0.010954641 0.05395654 0.09507316 -0.031212358 -0.06006739 -0.042843897
-0.060315765 -0.04684328 0.09028321 -0.06815603 -0.086861886 -0.011042212 -0.011134493 0.03047764
-0.060764473 0.06082202 -0.066759124 -0.027893586 0.030474197 0.043465618 -0.08354716 0.08056637
-0.05755484 0.07966135 0.05175756 0.015460173 -0.06821227 0.06241006 -0.018782739 -0.02666143
0.025295775 0.09108424 0.012432565 0.042994212 0.049398802 -0.01356513 -0.013551649 0.024570482
0.029092882 0.083765104 -0.015451461 -0.058450613 0.053415027 0.08948702 -0.0512598 -0.054143958
-0.0116650965 0.06389681 -0.07130334 0.083696365 0.10255543 -0.037315246 0.068252295 0.071899734
-0.007845993 -0.09751803 0.07400642 0.056985553 -0.0740713 0.038631458 0.05749839 -0.044414267
0.052456636 0.091933124 -0.03042359 0.011563158 -0.024418857 -0.048096012 0.045006014 -0.002825026
-0.023370879 -0.023150753 0.02028851 -0.05741258 0.03789642 0.0018592852 0.051340386 0.04144271
-0.00016449759 -0.08177646 0.03183675 -0.04086572 -0.056389306 -0.021338237 0.045212686 0.0018396524
-0.019395053 -0.024073226 -0.05598131 -0.06285514 0.121573 0.10615224 0.030255912 0.055706605
0.007136077 0.012805307 0.024483046 -0.0655458 -0.043996993 0.023701046 0.061293513 0.01658996
-0.113549635 0.031635348 0.017525023 -0.020129994 0.070691496 0.08730454 -0.03780661 -0.08943243
0.08738894 0.044890326 -0.004923727 0.013836144 -0.009745523 -0.044139605 0.11874003 0.032340012
0.031228337 0.09403575 0.07611158 0.03274327 0.05153252 -0.07464952 -0.05213168 -0.013478812
0.049980115 0.083765276 -0.0457408 0.08800291 0.0037026585 0.05779259 0.06082373 0.12601972
-0.01731991 0.0022597942 -0.060184747 0.01246501 0.07907527 0.09444955 -0.021945536 0.037843198
0.07270811 0.087853454 -0.008901663 0.030466102 -0.06540205 -0.09955851 -0.059681647 -0.04649958
0.025934791 0.0019427552 0.022698143 -0.08621344 -0.012138847 -0.076040566 0.07627388 -0.028538574
-0.016651966 -0.023135258 0.05576454 -0.02591597 0.09352446 0.0085654585 -0.00038314494 0.09636602
-0.04840096 -0.08618086 0.05388785 0.039227687 0.05586391 0.030630892 -0.038564574 -0.067329496
-0.048694942 -0.054079074 0.05171659 0.083906785 -0.06950977 0.008875102 0.018227534 -0.058739256
-0.074923225 -0.09384895 -0.043651085 0.024190923 -0.07775832 0.05917431 0.01652321 -0.060173433
-0.05260183 0.05310643 0.039919924 -0.08432292 -0.091253564 0.07075611 -0.06619501 0.09831775
-0.070127875 -0.06722769 -0.047982845 0.06678943 -0.060103104 -0.07212011 -0.0016835213 -0.0020704127
0.072265536 0.09541092 0.033040967 0.090450905 -0.09164751 -0.07525189 0.045401834 -0.061639313
-0.032676578 0.05655944 0.0314477 -0.09268735 -0.0119209 -0.074543275 -0.096619345 -0.023929724
-0.09895348 -0.072170235 -0.08825279 0.027267326 0.05705009 0.0717175 0.07836248 0.046846498
-0.03340072 0.048115022 -0.037581965 0.046996973 -0.0050669173 -0.044639993 0.0256575 -0.019888382
0.030083615 0.013123824 8.8857276e-05 0.02149454 -0.013407432 0.03715708 -0.03638356 0.005336484
00000000: d510 853d 8f4e 74bc 9cab 57bc 6053 843d
00000010: 2ebf 533d aa59 d33c e3e3 0dbd bf9d 87bc
00000020: 693e 3f3d 4635 a43c 187b 333c 8801 5d3d
00000030: b8b5 c23d 0fb1 ffbc 3909 76bd 157d 2fbd
00000040: aa0d 77bd bdde 3fbd 67e6 b83d 6395 8bbd
00000050: a5e4 b1bd 65ea 34bc 736d 36bc 3eac f93c
00000060: 2be4 78bd 8320 793d 02b9 88bd 1781 e4bc
00000070: 06a5 f93c 0109 323d c61a abbd fbff a43d
00000080: a0be 6bbd 7d25 a33d bcff 533d aa4c 7d3c
00000090: e0b2 8bbd b1a1 7f3d 42de 99bc 1269 dabc
000000a0: 1639 cf3c 608a ba3d f5b1 4b3c b31a 303d
000000b0: 6656 4a3d 4740 5ebc bc07 5ebc 0948 c93c
000000c0: 3254 ee3c 0a8d ab3d 2028 7dbc e969 6fbd
000000d0: b7c9 5a3d f944 b73d ccf5 51bd 0ec6 5dbd
000000e0: f61e 3fbc 55dc 823d 7c07 92bd 0069 ab3d
000000f0: 9508 d23d dfd7 18bd dcc7 8b3d 2b40 933d
00000100: 7b8c 00bc 88b7 c7bd ae90 973d af69 693d
00000110: b2b2 97bd 053c 1e3d 6f83 6b3d bceb 35bd
00000120: c5dc 563d 6f47 bc3d e53a f9bc 6673 3d3c
00000130: 0e0a c8bc 5300 45bd 3a58 383d 1224 39bb
00000140: 4974 bfbc a6a6 bdbc 1734 a63c 7429 6bbd
00000150: 4739 1b3d 42b3 f33a 4c4a 523d d5bf 293d
00000160: fc7c 2cb9 6b7a a7bd 4167 023d d062 27bd
00000170: 79f8 66bd 87cd aebc f030 393d 7e20 f13a
00000180: 60e2 9ebc 3735 c5bc a84c 65bd 32ba 80bd
00000190: 44fb f83d 5866 d93d 3fdb f73c 9c2c 643d
000001a0: c1d5 e93b 5acd 513c ab90 c83c e03c 86bd
000001b0: 3136 34bd b228 c23c e80e 7b3d abe7 873c
000001c0: b68c e8bd 1194 013d a390 8f3c a8e7 a4bc
000001d0: b4c6 903d b9cc b23d 1bdb 1abd 5a28 b7bd
000001e0: f9f8 b23d ebde 373d 3757 a1bb feb0 623c
000001f0: b0ab 1fbc bbcb 34bd f92d f33d f676 043d
00000200: 92d2 ff3c d195 c03d 63e0 9b3d cf1d 063d
00000210: c413 533d d9e1 98bd 0788 55bd 3cd6 5cbc
00000220: f3b7 4c3d 218d ab3d b55a 3bbd df3a b43d
00000230: 4da8 723b ecb7 6c3d 4e22 793d 500b 013e
00000240: 7ce2 8dbc 0e19 143b 4884 76bd 0b3a 4c3c
00000250: 37f2 a13d c46e c13d 20c7 b3bc 7801 1b3d
00000260: fde7 943d 83ec b33d 48d8 11bc 0c94 f93c
00000270: 83f1 85bd 55e5 cbbd be74 74bd 5876 3ebd
00000280: 3375 d43c 0ca4 fe3a 75f1 b93c ac90 b0bd
00000290: 04e2 46bc 28bb 9bbd 7b35 9c3d bac9 e9bc
000002a0: b469 88bc 2786 bdbc 5c69 643d ba4d d4bc
000002b0: c189 bf3d 2356 0c3c d8e0 c8b9 8c5b c53d
000002c0: 1640 46bd 977f b0bd 82b9 5c3d 36ad 203d
000002d0: 8ed1 643d a3ed fa3c e3f5 1dbd 0ce4 89bd
000002e0: 5974 47bd 0582 5dbd c6d4 533d 52d7 ab3d
000002f0: 235b 8ebd e068 113c e951 953c 9398 70bd
00000300: 5971 99bd e133 c0bd 7bcb 32bd 0b2c c63c
00000310: c13f 9fbd c360 723d af5b 873c 6b78 76bd
00000320: 0475 57bd 2186 593d 1383 233d 7fb1 acbd
00000330: 26e3 babd 94e8 903d 4091 87bd d15a c93d
00000340: 349f 8fbd acae 89bd a989 44bd e6c8 883d
00000350: ac2e 76bd b5b3 93bd 9aa9 dcba c3af 07bb
00000360: f4ff 933d cd66 c33d f755 073d 533e b93d
00000370: b1b1 bbbd aa1d 9abd 46f7 393d 8179 7cbd
00000380: e0d7 05bd dfaa 673d 4ecf 003d ded2 bdbd
00000390: e14f 43bc 25aa 98bd 5de0 c5bd 4508 c4bc
000003a0: 1fa8 cabd fdcd 93bd e1bd b4bd ba5f df3c
000003b0: 5bad 693d a0e0 923d 827c a03d 1de2 3f3d
000003c0: 32cf 08bd 4214 453d 8cef 19bd e67f 403d
000003d0: 6208 a6bb 6dd8 36bd ad2f d23c f6ec a2bc
000003e0: ea71 f63c 4f05 573c e358 ba38 5115 b03c
000003f0: d8aa 5bbc 0632 183d ee06 15bd acdd ae3b

bias_ih_l0 f4 [240]
0.015849484 -0.057913654 -0.091657296 0.006946562 -0.10978803 -0.08202433 0.05209438 0.09380199
0.018279804 -0.033936847 0.036204677 -0.0017065037 0.008819893 -0.05879982 -0.011176926 0.003556229
-0.09912007 -0.09219545 -0.030214405 0.051052906 -0.0040956703 -0.075094685 0.11111948 -0.0008068328
-0.0045687216 0.0017845324 0.055680975 0.0022786257 0.00022752584 -0.0785424 0.038049452 -0.022772552
0.018449176 0.032697942 -0.028762346 0.05688878 0.07471711 0.08895456 -0.10710805 -0.04932884
-0.011820387 -0.0071876706 -0.09358006 0.018241785 0.04431393 0.08782578 -0.053388335 0.112459965
0.07167768 0.056264482 0.030471718 -0.0124253575 0.01721681 -0.0435606 0.047730085 0.06118956
-0.088159725 -0.016144298 0.04821615 -0.038600557 -0.06910425 0.04339671 -0.023138119 0.091156036
-0.10601396 0.03898012 0.03741135 0.05126599 0.029830875 -0.035144612 0.009400746 -0.016689006
0.10597328 0.08465837 -0.013086833 0.011852411 -0.019653305 -0.07655682 -0.018355954 0.08572927
0.01307382 0.08439686 0.056426156 0.081122994 -0.049225286 -0.074027486 0.09849752 0.025238877
0.030698817 -0.046827618 -0.04905647 -0.08339398 -0.12626734 -0.052029558 0.06380066 -0.09383107
0.107907206 0.09056842 -0.006303925 -0.03890017 0.066921785 -0.06421386 0.014807357 -0.010012077
0.008797879 -0.10723776 -0.025315283 -0.082185775 -0.046846196 0.071976274 0.02491341 -0.06330311
-0.02199197 -0.010673675 -0.05056467 -0.061461616 0.09762782 0.07538859 0.0490648 0.05854712
0.0971517 -0.091561496 0.06074444 0.039092377 0.055454977 -0.045410916 -0.10899488 -0.10465164
0.015180565 0.037546765 0.025456486 -0.04031536 -0.06746808 0.06731966 0.06894957 0.0016582764
-0.023788746 -0.040212285 0.005346881 -0.08941021 0.073464364 0.039970275 -0.0007570061 -0.070373416
0.0865715 -0.014357258 -0.022292227 -0.07782128 -0.11004083 -0.08619848 0.05876813 0.031858243
0.048093755 0.113979004 -0.060145747 -0.009686675 -0.0015299853 0.08358496 -0.06418183 -0.017798187
0.06204977 0.0016347417 -0.06472678 0.09971462 0.05662042 0.100242585 0.048941374 -0.09333966
-0.11289918 0.048932165 -0.0024775856 -0.09940849 0.08523321 -0.009826926 0.027050573 0.006476202
-0.09996119 0.09627966 0.06798854 0.09367853 -0.014300981 -0.00636525 -0.036598276 -0.003025636
0.094638586 -0.10825043 0.06396898 0.029919943 -0.068299 0.08746879 -0.07622964 0.07937874
-0.06439168 0.0682802 -0.02274087 -0.0809231 -0.081624724 0.0053058225 -0.008205483 0.052276764
-0.015872769 0.055644285 0.07781143 0.04480993 0.0934723 -0.048761517 -0.061917957 0.08008338
0.10380182 0.021409394 0.08623418 0.0024724968 -0.09368835 -0.027222225 -0.10421161 -0.07218141
0.08467617 0.011442416 0.0014059269 -0.03552119 0.0932806 -0.034806352 0.05983732 0.082661085
-0.08663025 -0.10403112 -0.044440664 -0.10458187 0.024495535 0.007916028 -0.017216802 -0.024347546
-0.058647987 0.08343907 -0.056165062 -0.08754867 -0.013953294 -0.0161927 -0.076842465 -0.05598166
00000000: c7d6 813c de36 6dbd d2b6 bbbd fc9f e33b
00000010: 8cd8 e0bd 5ffc a7bd eb60 553d 421b c03d
00000020: 87bf 953c 5d01 0bbd 5b4b 143d c3ac dfba
00000030: 5081 103c 14d8 70bd 6d1f 37bc 9f0f 693b
00000040: 77ff cabd f8d0 bcbd 3384 f7bc da1c 513d
00000050: f934 86bb 3ecb 99bd 9c92 e33d a281 53ba
00000060: 37b5 95bb f9e6 e93a bc11 643d ff54 153b
00000070: 0194 6e39 d6da a0bd bed9 1b3d 818d babc
00000080: ba22 973c 47ee 053d 039f ebbc 3604 693d
00000090: 4905 993d cf2d b63d 775b dbbd 0a0d 4abd
000000a0: 4caa 41bc 8d86 ebbb e7a6 bfbd cc6f 953c
000000b0: 8682 353d 01de b33d baad 5abd 6951 e63d
000000c0: bfcb 923d 9675 663d d39f f93c ba93 4bbc
000000d0: 440a 8d3c 9a6c 32bd 9f80 433d e7a1 7a3d
000000e0: 168d b4bd 0c41 84bc 4c7e 453d 9e1b 1ebd
000000f0: 8786 8dbd c0c0 313d 278c bdbc 04b0 ba3d
00000100: d91d d9bd 9ea9 1f3d a53c 193d 49fc 513d
00000110: e15f f43c ccf3 0fbd 9605 1a3c 62b7 88bc
00000120: 8508 d93d 5e61 ad3d 286a 56bc 9d30 423c
00000130: f8ff a0bc d2c9 9cbd 3a5f 96bc d492 af3d
00000140: 9333 563c 43d8 ac3d 1d1f 673d d023 a63d
00000150: 74a0 49bd b99b 97bd 11b9 c93d c3c1 ce3c
00000160: 167c fb3c 51ce 3fbd 70ef 48bd 77ca aabd
00000170: 3a4c 01be f21c 55bd eca9 823d 812a c0bd
00000180: 74fe dc3d f07b b93d 2891 cebb c955 1fbd
00000190: 4a0e 893d 8e82 83bd 8f9a 723c b209 24bc
000001a0: fb24 103c 799f dbbd ff61 cfbc 0451 a8bd
000001b0: cce1 3fbd 4c68 933d 3517 cc3c 10a5 81bd
000001c0: 8128 b4bc a3e0 2ebc e61c 4fbd 2dbf 7bbd
000001d0: 18f1 c73d 5565 9a3d 2cf8 483d 1bcf 6f3d
000001e0: 78f7 c63d 9884 bbbd 29cf 783d 541f 203d
000001f0: c224 633d cc00 3abd b538 dfbd 9953 d6bd
00000200: e8b7 783c a3ca 193d 1f8a d03c b821 25bd
00000210: b42c 8abd e4de 893d 6f35 8d3d 865a d93a
00000220: 9ee0 c2bc a3b5 24bd e434 af3b b31c b7bd
00000230: 7c74 963d dfb7 233d d271 46ba f01f 90bd
00000240: 664c b13d b43a 6bbc 309e b6bc c360 9fbd
00000250: 165d e1bd d488 b0bd dab6 703d ca7d 023d
00000260: f5fd 443d d36d e93d 635b 76bd dcb4 1ebc
00000270: ca89 c8ba 972e ab3d c371 83bd 81cd 91bc
00000280: e627 7e3d d444 d63a 798f 84bd 2e37 cc3d
00000290: d0ea 673d fc4b cd3d c076 483d dd28 bfbd
000002a0: af37 e7bd 186d 483d fd5e 22bb ae96 cbbd
000002b0: c08e ae3d 1d01 21bc 2a99 dd3c 5236 d43b
000002c0: 74b8 ccbd 452e c53d 933d 8b3d 87da bf3d
000002d0: a94e 6abc 9693 d0bb 13e8 15bd c049 46bb
000002e0: e0d1 c13d 67b2 ddbd 2b02 833d ab1a f53c
000002f0: 59e0 8bbd d622 b33d 491e 9cbd 5291 a23d
00000300: c9df 83bd 7dd6 8b3d 104b babc 03bb a5bd
00000310: dd2a a7bd 77dc ad3b 4a70 06bc 2920 563d
00000320: 9c07 82bc 43eb 633d 995b 9f3d 9e8a 373d
00000330: 686e bf3d 28ba 47bd af9d 7dbd c102 a43d
00000340: 0c96 d43d c162 af3c 8c9b b03d 9d09 223b
00000350: addf bfbd 2501 dfbc e66c d5bd d9d3 93bd
00000360: b36a ad3d f978 3b3c 1447 b83a ab7e 11bd
00000370: e609 bf3d 1b91 0ebd fa17 753d 374a a93d
00000380: 336b b1bd 450e d5bd 6a07 36bd 052f d6bd
00000390: dcaa c83c 3ab2 013c 400a 8dbc 8174 c7bc
000003a0: df38 70bd 1ae2 aa3d 560d 66bd b84c b3bd
000003b0: 5b9c 64bc 8ea6 84bc 955f 9dbd 064d 65bd

bias_hh_l0 f4 [240]
0.0733347 -0.083849266 0.023823768 0.03907141 -0.061782844 0.08892681 -0.04807394 0.06175589
0.039345622 -0.038871724 -0.0641886 -0.08473036 0.06596261 0.085951336 0.018087955 0.03672205
-0.06286509 -0.051693674 0.03494028 -0.04655217 0.07721483 -0.03756058 -0.0034076297 0.018993452
0.011258365 -0.042003166 -0.0951692 0.041309383 -0.07918785 -0.061561905 -0.026605124 0.011283554
0.004428261 -0.09509668 -0.061416242 0.08427548 -0.07099305 -0.074800454 -0.026183156 0.040589597
-0.0067454013 -0.08764083 -0.08981418 -0.06639057 -0.036725778 -0.015902612 -0.09114484 0.032784987
0.024747467 -0.048703853 -0.0496538 -0.009627301 -0.038114645 0.015381342 -0.01669813 -0.10539211
0.043899864 0.06929753 -0.036265753 0.091619134 -0.08195927 0.0768257 -0.07532764 0.10173056
-0.022659307 0.07508841 0.065089226 0.04398158 0.011286732 -0.09471557 0.097543545 0.01851087
0.017693812 0.03242941 0.031908356 0.047363527 -0.11347891 0.027050022 -0.07398831 -0.06849873
-0.04043394 -0.08266717 -0.0017016513 -0.03499277 -0.04164523 0.047275767 0.076383814 -0.027336674
-0.109526396 -0.13647416 -0.015742116 -0.09683884 -0.09336817 0.036149632 -0.03911594 -0.0097145
-0.07016072 0.052006036 -0.07045038 0.09947303 -0.093318895 -0.008722845 0.088827 -0.072156034
-0.0075869015 -0.0778604 -0.068912715 -0.019415822 0.13326757 0.03815419 -0.04511444 0.024401408
0.026185844 0.0022395926 0.011865923 -0.10523682 -0.061422348 -0.102602765 -0.029108029 0.014145575
-0.016602157 -0.0033124757 0.04042185 -0.0829041 0.03653479 -0.027077086 0.075814545 0.04175891
-0.06546465 0.07001192 -0.040226758 0.0030391011 0.021857087 -0.045314047 -0.07640325 -0.021871632
-0.090345226 -0.049083747 0.07700952 -0.09399674 -0.03453223 -0.00015411126 -0.035716858 0.082726434
0.109414645 0.07000972 0.043251894 0.03321599 -0.03952358 0.050525673 0.08526886 -0.057844736
-0.029363012 -0.020725466 -0.03741493 -0.0075761694 0.07677589 -0.097113565 0.06916782 -0.057792384
-0.056571297 -0.031688422 0.11195809 0.09629621 -0.03173434 0.06065024 0.02681672 -0.06924861
0.077430725 -0.07550244 -0.0862395 -0.010034055 -0.09004035 0.0588455 -0.07269588 -0.07934262
0.104348764 -0.04480165 0.08590635 -0.032794688 0.026416404 0.038986817 -0.06803175 -0.08393683
0.033012655 0.08589838 -0.07539655 0.04413691 0.05645116 -0.09444153 0.009702796 0.11437692
0.041209236 0.056553304 0.074457146 0.11469181 0.052770775 0.028315917 0.087588996 0.086473346
0.108153865 -0.04669976 0.036536086 -0.09044182 0.025425097 0.02037281 -0.08752445 0.0077142897
-0.08953797 0.07446399 0.03844053 0.0057891994 -0.028525224 0.10758124 -0.107151575 0.014089857
0.07914503 0.08508491 -0.022676654 0.11641675 0.10379656 -0.06892958 -0.08856553 -0.0494856
-0.011919603 -0.102573 -0.07292096 0.032507736 -0.09996949 -0.050770618 0.0029933313 -0.03837624
0.08994044 0.07677703 0.07767949 -0.06984625 0.0011408677 0.006910256 -0.010360826 -0.10606532
00000000: 8130 963d 2ab9 abbd 102a c33c 5809 203d
00000010: 0210 7dbd 421f b63d 2ee9 44bd bef3 7c3d
00000020: e028 213d f537 1fbd 5075 83bd 1c87 adbd
00000030: 6817 873d 4107 b03d 312d 943c dc69 163d
00000040: 6abf 80bd bfbc 53bd 8a1d 0f3d 7dad 3ebd
00000050: cf22 9e3d 1fd9 19bd 8a52 5fbb 2898 9b3c
00000060: 0175 383c 830b 2cbd 12e8 c2bd 0734 293d
00000070: 3d2d a2bd 5628 7cbd fdf2 d9bc a8de 383c
00000080: f21a 913b 0cc2 c2bd 998f 7bbd 9f98 ac3d
00000090: ce64 91bd fb30 99bd 0f7e d6bc 4741 263d
000000a0: 8708 ddbb 097d b3bd 7ff0 b7bd c7f7 87bd
000000b0: c56d 16bd 3246 82bc 25aa babd 8d49 063d
000000c0: 33bb ca3c b17d 47bd c861 4bbd d4bb 1dbc
000000d0: 1a1e 1cbd 0602 7c3c 84ca 88bc d2d7 d7bd
000000e0: 58d0 333d ddeb 8d3d 668b 14bd d0a2 bb3d
000000f0: 43da a7bd cb56 9d3d 6145 9abd 1d58 d03d
00000100: 03a0 b9bc f4c7 993d 804d 853d 0726 343d
00000110: fceb 383c 3dfa c1bd e9c4 c73d 1ca4 973c
00000120: 9df2 903c b3d4 043d 56b2 023d 4200 423d
00000130: a167 e8bd 0298 dd3c 2f87 97bd 1049 8cbd
00000140: 0f9e 25bd 684d a9bd f109 dfba 9454 0fbd
00000150: 3094 2abd 3ca4 413d 1e6f 9c3d 29f1 dfbc
00000160: 604f e0bd e2bf 0bbe 9cf5 80bc 7153 c6bd
00000170: d037 bfbd a311 143d 0938 20bd 9129 1fbc
00000180: 6cb0 8fbd 4804 553d 4a48 90bd 84b8 cb3d
00000190: fa1d bfbd 44ea 0ebc eeea b53d 8bc6 93bd
000001a0: 8b9b f8bb 4675 9fbd 1c22 8dbd ee0d 9fbc
000001b0: 4b77 083e 9147 1c3d ebc9 38bd 76e5 c73c
000001c0: b283 d63c 21c6 123b 4a69 423c 6786 d7bd
000001d0: 0096 7bbd 6621 d2bd f673 eebc d8c2 673c
000001e0: 3f01 88bc 1f16 59bb 6291 253d a0c9 a9bd
000001f0: 81a5 153d c4d0 ddbc a844 9b3d 640b 2b3d
00000200: 5512 86bd 6962 8f3d d0c4 24bd a82b 473b
00000210: a20d b33c 399b 39bd 4f79 9cbd 232c b3bc
00000220: eb06 b9bd 0a0c 49bd 2bb7 9d3d 5d81 c0bd
00000230: ab71 0dbd ed98 21b9 d74b 12bd 7a6c a93d
00000240: c914 e03d 4261 8f3d e628 313d 7d0d 083d
00000250: 7ae3 21bd 02f4 4e3d 71a1 ae3d 9aee 6cbd
00000260: b38a f0bc 74c8 a9bc 6640 19bd 8441 f8bb
00000270: ae3c 9d3d 7ae3 c6bd dca7 8d3d b5b7 6cbd
00000280: 4eb7 67bd b8cb 01bd 484a e53d f336 c53d
00000290: defb 01bd 636c 783d bdae db3c 37d2 8dbd
000002a0: 0094 9e3d 06a1 9abd 569e b0bd e165 24bc
000002b0: 1367 b8bd fb07 713d 94e1 94bd 627e a2bd
000002c0: ceb4 d53d ef81 37bd abef af3d b953 06bd
000002d0: 3767 d83c a4b0 1f3d 3b54 8bbd 13e7 abbd
000002e0: 4738 073d 7deb af3d 8269 9abd e8c8 343d
000002f0: 5539 673d 906a c1bd 7af8 1e3c 723e ea3d
00000300: 04cb 283d 70a4 673d fd7c 983d 8ae3 ea3d
00000310: 2b26 583d c8f6 e73c dc61 b33d f018 b13d
00000320: c67f dd3d 3f48 3fbd dda6 153d 9039 b9bd
00000330: 4b48 d03c e1e4 a63c 0540 b3bd 27c8 fc3b
00000340: af5f b7bd 9480 983d d173 1d3d 53b3 bd3b
00000350: bbad e9bc 8e53 dc3d 4972 dbbd 25d9 663c
00000360: ca16 a23d ff40 ae3d 64c4 b9bc e86b ee3d
00000370: 4a93 d43d f42a 8dbd d861 b5bd 6ab1 4abd
00000380: 704a 43bc cb11 d2bd 9657 95bd d526 053d
00000390: cebc ccbd daf4 4fbd c42b 443b 6730 1dbd
000003a0: b232 b83d 473d 9d3d 6d16 9f3d 8d0b 8fbd
000003b0: 2b89 953a 6e6f e23b 74c0 29bc c638 d9bd

weight_ih_l1 f4 [240, 80]
0.031043442 -0.038692743 0.018238034 -0.040434644 0.044460174 -0.06072456 -0.02754271 0.014858338
-0.00022263339 0.06999094 0.12280412 -0.0716157 0.06709475 -0.017769748 0.012892171 -0.09643728
0.057502057 0.0046951203 -0.03869566 -0.0051918183 0.024137136 0.0051705516 -0.016086517 -0.019011043
0.042446468 -0.080725625 0.11095324 0.10671506 -0.07392468 0.028990334 0.10714977 -0.060174778
-0.0069985176 -0.06711587 -0.023299735 -0.099695064 -0.07548155 -0.0015977521 0.0868142 0.09821888
0.012878857 0.07785467 0.01686452 0.02595146 -0.023451773 0.07035176 -0.11023191 -0.074112296
-0.04964494 0.010471594 0.052414913 -0.03538596 -0.0033041232 0.053518277 0.038369443 0.09365564
0.059096657 0.010388249 -0.03341673 0.039367687 -0.09630882 -0.06863537 0.03479948 0.071370885
-0.034508213 -0.008097168 -0.059376895 -0.067739 -0.109898835 0.0023537097 -0.033049732 0.09799951
-0.058608737 -0.014161874 -0.024303563 0.0069830026 -0.07012234 -0.03282282 -0.08147214 0.019412745
0.01457244 0.094888456 0.08095487 -0.006274506 0.08792259 0.009134166 -0.057410516 0.0022466874
-0.06992958 0.028552718 -0.0038180894 0.005703045 -0.08330845 -0.069519825 -0.025766326 -0.048097145
0.017191092 0.032827508 0.0081334235 -0.09226102 -0.084898464 0.0933998 -0.008610685 0.003299639
0.03636072 -0.07972447 -0.083475746 -0.06397244 -0.016167494 0.029003844 -0.045319214 -0.015433129
0.0879737 -0.09694474 -0.034746017 0.097457945 0.008028702 -0.070854925 -0.062486436 0.058525614
0.08254799 -0.10624138 -0.0045369235 0.09873301 -0.00525673 0.07274849 0.07858442 -0.056209497
-0.06102494 0.041873146 0.0790143 0.00814435 -0.009898216 0.02174346 0.022783281 -0.040397685
0.020629432 -0.0804048 0.044747006 0.058333542 0.09662106 0.08671227 -0.03136636 0.015864184
-0.09406041 0.018764023 0.096676975 -0.007206184 -0.060076732 0.06616533 -0.026446171 -0.0384685
0.0035394316 -0.00952645 0.075083226 -0.014540763 0.01759313 -0.034185525 0.047313914 -0.09339658
0.053134944 -0.031520605 -0.040644042 -0.07587921 -0.06968945 -0.01843038 0.008769528 -0.025314072
-0.059959967 0.0871088 0.047208976 0.037945792 0.045120355 0.10430063 -0.002183068 -0.0127577605
0.023156092 0.07665225 -0.11497616 0.02498849 -0.025916576 -0.017263744 -0.0020246215 -0.11276019
0.016968137 -0.029041449 0.07469048 -0.10264934 -0.095342666 -0.07432549 0.067449525 0.019169044
0.106864825 -0.048202064 -0.06668711 0.019905115 -0.08955493 -0.005254851 0.067608036 0.0838991
-0.109035134 -0.04762093 -0.095550835 0.03630244 -0.03159666 0.0132251615 -0.019953737 -0.0063107396
-0.08470478 0.075887695 0.11365773 -0.04313572 -0.082484595 -0.030212065 0.013985112 -0.10197897
-0.0045441147 -0.030413168 -0.0186091 0.053535275 0.031454995 0.0036438832 -0.05356361 -0.0789258
0.06139052 0.00023727823 0.014151658 0.038999524 -0.059806697 0.07149061 -0.053926755 -0.019641489
-0.01729362 0.06426844 -0.069490716 -0.032027468 0.077259205 0.038602572 0.06401398 0.058915082
-0.077947594 0.08864991 0.0053938273 -0.046519384 0.046001095 -0.010378938 0.055251524 0.015113789
0.11464027 0.045624394 -0.028129453 0.018121088 -0.049651776 -0.016215261 0.09240881 -0.039963685
00000000: d14e fe3c 487c 1ebd ee67 953c cc9e 25bd
00000010: df1b 363d 51ba 78bd 40a1 e1bc 6370 733c
00000020: b272 69b9 6957 8f3d ba80 fb3d 41ab 92bd
00000030: f968 893d dd91 91bc af39 533c e980 c5bd
00000040: 4787 6b3d 86d9 993b 577f 1ebd 2120 aabb
00000050: 3ebb c53c bb6d a93b dfc7 83bc 0cbd 9bbc
00000060: 59dc 2d3d 7a53 a5bd 743b e33d 6d8d da3d
00000070: d365 97bd 237d ed3c 5771 db3d d479 76bd
00000080: d253 e5bb 0c74 89bd 16df bebc ed2c ccbd
00000090: 1296 9abd aa6b d1ba a5cb b13d fb26 c93d
000000a0: d701 533c 4572 9f3d 7627 8a3c 2898 d43c
000000b0: ef1d c0bc 9514 903d 45c1 e1bd 30c8 97bd
000000c0: 7e58 4bbd 0c91 2b3c 05b1 563d def0 10bd
000000d0: fd89 58bb fb35 5b3d 4729 1d3d 87ce bf3d
000000e0: 560f 723d 7933 2a3c fbdf 08bd 0340 213d
000000f0: 8f3d c5bd b390 8cbd e689 0e3d e62a 923d
00000100: 7c58 0dbd fca9 04bc 3035 73bd bfba 8abd
00000110: a412 e1bd b240 1a3b 285f 07bd f8b3 c83d
00000120: b70f 70bd 3407 68bc 4418 c7bc acd1 e43b
00000130: 4d9c 8fbd 3971 06bd deda a6bd 7a07 9f3c
00000140: 3ec1 6e3c e154 c23d abcb a53d 5f9a cdbb
00000150: c210 b43d 78a7 153c 4a27 6bbd 293d 133b
00000160: 3d37 8fbd 64e7 e93c e938 7abb 9ce0 ba3b
00000170: 9f9d aabd 6960 8ebd e713 d3bc 8301 45bd
00000180: 55d4 8c3c 2376 063d 0d42 053c 58f3 bcbd
00000190: 3fdf adbd 6548 bf3d d513 0dbc c23e 583b
000001a0: faee 143d 9546 a3bd 55f5 aabd fc03 83bd
000001b0: b171 84bc 7899 ed3c a4a0 39bd 3cdb 7cbc
000001c0: 8e2b b43d f78a c6bd d751 0ebd 0898 c73d
000001d0: d18a 033c 631c 91bd c7f1 7fbd 8eb8 6f3d
000001e0: ec0e a93d 1595 d9bd 79aa 94bb 8834 ca3d
000001f0: a640 acbb 29fd 943d def0 a03d ee3b 66bd
00000200: 4af5 79bd 2d83 2b3d 40d2 a13d e16f 053c
00000210: 212c 22bc 571f b23c 01a4 ba3c 0b78 25bd
00000220: 0eff a83c 46ab a4bd a348 373d 27ef 6e3d
00000230: 43e1 c53d 3496 b13d 037a 00bd 9bf5 813c
00000240: bfa2 c0bd 02b7 993c 94fe c53d da21 ecbb
00000250: 0513 76bd b081 873d a4a5 d8bc 2591 1dbd
00000260: cff5 673b d414 1cbc 3cc5 993d 613c 6ebc
00000270: 781f 903c 1f06 0cbd 3ccc 413d b546 bfbd
00000280: 07a4 593d c01b 01bd 5e7a 26bd 8f66 9bbd
00000290: 58b9 8ebd 4ffb 96bc 11ae 0f3c 755f cfbc
000002a0: 9598 75bd 1966 b23d 335e 413d 0c6d 1b3d
000002b0: 1fd0 383d 929b d53d ce11 0fbb ed05 51bc
000002c0: d8b1 bd3c dbfb 9c3d 9f78 ebbd a9b4 cc3c
000002d0: 004f d4bc b26c 8dbc 83af 04bb d1ee e6bd
000002e0: c300 8b3c 55e8 edbc 53f7 983d d139 d2bd
000002f0: 0443 c3bd f637 98bd fa22 8a3d 6608 9d3c
00000300: f2db da3d 876f 45bd 4093 88bd 0d10 a33c
00000310: 9368 b7bd e330 acbb 1576 8a3d 4bd3 ab3d
00000320: d04d dfbd 2a0e 43bd 28b0 c3bd deb1 143d
00000330: 806b 01bd 59ae 583c 0576 a3bc 52ca cebb
00000340: b379 adbd 026b 9b3d 62c5 e83d 15af 30bd
00000350: afed a8bd 4b7f f7bc d021 653c 5ada d0bd
00000360: cce6 94bb 0925 f9bc 1c72 98bc ce47 5b3d
00000370: f4d6 003d 37ce 6e3b 8465 5bbd daa3 a1bd
00000380: a074 7b3d e4cd 7839 5bdc 673c f7bd 1f3d
00000390: def7 74bd ab69 923d 4de2 5cbd 30e7 a0bc
000003a0: 5aab 8dbc 2c9f 833d 2651 8ebd 3c2f 03bd
000003b0: 133a 9e3d bb1d 1e3d c319 833d f150 713d
000003c0: fda2 9fbd 168e b53d b4be b03b 1c8b 3ebd
000003d0: a56b 3c3d 6c0c 2abc 6c4f 623d d39f 773c
000003e0: 85c8 ea3d a5e0 3a3d bd6f e6bc ad72 943c
000003f0: a95f 4bbd ded5 84bc d540 bd3d f6b0 23bd

weight_hh_l1 f4 [240, 80]
0.0940432 -0.08208406 0.05472312 0.030543359 0.019612731 -0.08752113 -0.050153244 0.017337812
-0.009321588 0.06423239 -0.020996526 0.011125101 0.102905974 0.005075468 0.06620813 0.09454173
0.03774489 -0.041926797 -0.010358724 0.099831104 0.099104315 -0.0073917382 0.043255292 -0.046130292
-0.06927569 0.054919515 -0.004096838 0.04819078 0.07765369 0.014832312 -0.080458164 0.102334104
0.108491495 0.02564548 -0.058389638 0.08997824 0.02465725 0.027349057 -0.09091819 0.031302437
-0.0065746875 -0.078315176 -0.040107418 0.07455528 0.06003219 0.011803337 0.033416145 0.07724346
0.038694743 0.10873259 0.1362714 0.0089179585 0.011172139 0.036089484 -0.053069483 -0.02088956
-0.077726506 -0.0042018676 -0.04627728 0.011155878 -0.06737837 -0.07669438 -0.061912127 0.045651067
0.080975205 0.07523568 -0.09108831 -0.010968261 0.028917646 -0.083674125 0.07283544 -0.088644855
0.028071424 0.033698145 0.007453843 -0.065596245 0.020387176 -0.024475146 -0.01299509 -0.08530835
0.07322326 0.08881805 0.059608616 0.040324073 0.062924586 -0.070381805 0.06772147 0.027843213
0.032023296 -0.06635102 -0.10044788 0.02762841 -0.04692104 -0.019767975 -0.0039415793 -0.08661162
0.0054649604 -0.049544398 -0.02563467 0.07045617 -0.010092468 0.04305131 -0.03820923 0.0033845613
0.082669124 -0.077724345 -0.047138687 0.04592819 0.08778788 -0.037592065 -0.09853246 -0.0040183594
-0.034292325 -0.056144167 0.0809074 0.06861242 0.081722505 -0.09230838 0.010937293 0.043803446
0.08734744 -0.045359377 0.043433703 -0.10028486 0.045880277 -0.031852733 -0.011716994 0.0127284825
0.013706669 -0.01889032 0.075428195 0.046784062 0.07359605 -0.07713104 -0.04541919 0.08985355
-0.032253634 -0.06721013 0.032711312 0.01338098 0.059361454 -0.04277433 -0.076507494 -0.090351015
0.058663085 -0.060232557 -0.035978757 0.08505575 -0.067890696 0.055720866 -0.07140787 0.09659208
0.082481466 -0.010943686 -0.0567948 -0.028528413 -0.00609011 -0.065737166 0.019745376 -0.00488282
0.04427825 0.079039045 -0.037450057 -0.039055854 -0.032875985 0.0779887 0.039506704 -0.042133916
0.014006462 -0.051288925 -0.07672698 0.07370692 0.09331478 0.02239628 -0.01006381 0.10246148
-0.026585475 -0.037808616 -0.03089333 0.02805705 0.07293018 -0.0050377976 0.051974516 0.030080998
0.07588917 -0.07376224 0.09623416 -0.051335715 -0.010315877 0.11080839 0.018756308 0.054908834
0.043529067 0.012264322 0.05291242 0.012022965 0.073717326 -0.03854478 -0.018211 -0.0045285015
-0.05570141 0.045120403 0.056818962 0.05423967 0.03781341 0.036477048 0.056983486 0.067930155
0.03350349 0.0499154 0.06659114 -0.07051433 -0.03185596 -0.034086585 0.09012507 0.034654316
0.05628769 0.010818826 0.100578405 0.04109916 0.018348191 -0.004061125 0.07059657 0.031751975
0.042793147 0.0667682 -0.0396679 0.109844856 -0.11171102 0.025304902 0.0020901335 -0.018537818
-0.08730493 -0.03932639 -0.030082794 0.007863217 -0.05298361 -0.037779316 0.035802305 0.066938
0.025377752 0.04722228 -0.015011662 -0.008376263 0.07538689 0.0390099 0.07865122 -0.11989495
0.018940203 -0.044192027 0.05066219 -0.10097602 0.043812938 -0.008313573 0.042847916 0.11947258
00000000: b999 c03d b01b a8bd 5a25 603d 1136 fa3c
00000010: e1aa a03c 473e b3bd 7d6d 4dbd 0708 8e3c
00000020: 93b9 18bc 458c 833d e800 acbc 0e46 363c
00000030: 5ec0 d23d 1d50 a63b 2198 873d 189f c13d
00000040: 639a 1a3d 6fbb 2bbd a3b7 29bc 4074 cc3d
00000050: 34f7 ca3d 6536 f2bb 762c 313d 1ef3 3cbd
00000060: 6ae0 8dbd 49f3 603d c53e 86bb b263 453d
00000070: e608 9f3d 3a03 733c 40c7 a4bd 8b94 d13d
00000080: ca30 de3d 7816 d23c f929 6fbd 8346 b83d
00000090: 00fe c93c 210b e03c 5133 babd fc36 003d
000000a0: 7a70 d7bb b563 a0bd ad47 24bd 70b0 983d
000000b0: 50e4 753d c962 413c 5edf 083d d231 9e3d
000000c0: 617e 1e3d 31af de3d bb8a 0b3e a11c 123c
000000d0: 590b 373c 91d2 133d 635f 59bd 9520 abbc
000000e0: 132f 9fbd d2af 89bb 3f8d 3dbd 25c7 363c
000000f0: acfd 89bd f111 9dbd 9297 7dbd 9dfc 3a3d
00000100: 54d6 a53d 2a15 9a3d 828c babd 39b4 33bc
00000110: b3e4 ec3c 575d abbd bf2a 953d 6f8b b5bd
00000120: 0bf6 e53c 1107 0a3d 5e3f f43b 5357 86bd
00000130: 0203 a73c 1a80 c8bc 5ce9 54bc 25b6 aebd
00000140: 14f6 953d 3de6 b53d 2a28 743d db2a 253d
00000150: 9bde 803d 5624 90bd 8eb1 8a3d 7317 e43c
00000160: dc2a 033d 0be3 87bd 9eb7 cdbd fa54 e23c
00000170: 4730 40bd 73f0 a1bc 5d28 81bb 6f61 b1bd
00000180: 6913 b33b 11ef 4abd cdff d1bc 534b 903d
00000190: e15a 25bc 9256 303d 4881 1cbd 84cf 5d3b
000001a0: 6e4e a93d f12d 9fbd 7f14 41bd 331f 3c3d
000001b0: 22ca b33d 23fa 19bd 63cb c9bd 71ac 83bb
000001c0: 1c76 0cbd 6df7 65bd c7b2 a53d ab84 8c3d
000001d0: 215e a73d 2d0c bdbd 5532 333c 3e6b 333d
000001e0: 37e3 b23d c1ca 39bd 8ae7 313d 2662 cdbd
000001f0: f5ec 3b3d 0378 02bd a3f8 3fbc 208b 503c
00000200: f091 603c dfbf 9abc 197a 9a3d a5a0 3f3d
00000210: 87b9 963d e1f6 9dbd 7909 3abd 2305 b83d
00000220: 631c 04bd 77a5 89bd 4cfc 053d e63b 5b3c
00000230: ff24 733d 2334 2fbd f6af 9cbd f409 b9bd
00000240: b448 703d 6ab6 76bd 765e 13bd b631 ae3d
00000250: 470a 8bbd 903b 643d 4a3e 92bd 12d2 c53d
00000260: 0bec a83d 254d 33bc aaa1 68bd 6bb4 e9bc
00000270: 8c8f c7bb 35a1 86bd 0ec1 a13c 1000 a0bb
00000280: 1c5d 353d 39df a13d 3b65 19bd 08f9 1fbd
00000290: f8a8 06bd 8ab8 9f3d c8d1 213d 9d94 2cbd
000002a0: 5c7b 653c 5614 52bd 0923 9dbd a7f3 963d
000002b0: d21b bf3d 6778 b73c aee2 24bc 53d7 d13d
000002c0: c8c9 d9bc 35dd 1abd 0214 fdbc e6d7 e53c
000002d0: 6b5c 953d 1c14 a5bb 3be3 543d 6d6c f63c
000002e0: c86b 9b3d a810 97bd 6a16 c53d 6645 52bd
000002f0: ed03 29bc 82ef e23d d4a6 993c 16e8 603d
00000300: 894b 323d 4bf0 483c b2ba 583d f8fb 443c
00000310: 1cf9 963d 22e1 1dbd 3c2f 95bc d363 94bb
00000320: 2927 64bd 2cd0 383d 00bb 683d 6b2a 5e3d
00000330: 3ce2 1a3d f568 153d 8467 693d f71e 8b3d
00000340: f53a 093d 1774 4c3d f060 883d d169 90bd
00000350: 657b 02bd 609e 0bbd 7e93 b83d aff1 0d3d
00000360: ec8d 663d 7241 313c 0dfc cd3d 9857 283d
00000370: f24e 963c 3013 85bb ef94 903d 5c0e 023d
00000380: de47 2f3d c4bd 883d cf7a 22bd 57f6 e03d
00000390: bfc8 e4bd 3a4c cf3c 9ffa 083b 9fdc 97bc
000003a0: edcc b2bd b514 21bd 3170 f6bc b9d4 003c
000003b0: 5805 59bd 7cbe 1abd 70a5 123d ca16 893d
000003c0: 01e5 cf3c 266c 413d 79f3 75bc 983c 09bc
000003d0: 7164 9a3d d8c8 1f3d e413 a13d 7c8b f5bd
000003e0: 7c28 9b3c b302 35bd 2883 4f3d 84cc cebd
000003f0: 3275 333d a735 08bc 4c81 2f3d 0aae f43d
