Simulations/Pendulum/results/model_ERTSNet_unchop.pt (torch, 704747 bytes, 34 tensors)

weight f4 [320, 6]
000000 ea cd a8 3e 1a f4 85 be f1 97 20 be 37 c2 c4 3d
       0.329696 -0.26162797 -0.15682961 0.09607356
000010 16 f3 7d 3e 73 e2 9e 3e 4d a9 dc bd 2b 1b 93 3e
       0.24799761 0.31032142 -0.10774479 0.28731665
000020 91 15 09 3e 5d 46 89 be 68 2c 92 3e 59 cd 2d be
       0.13387133 -0.26811495 0.28549504 -0.16972865
000030 2c 8b 94 3e 8f 4b f6 bd b1 15 a1 be 65 a4 98 be
       0.2901243 -0.120261304 -0.31461862 -0.29812923
000040 36 7e 2a be 94 56 43 be 97 bd cf 3c f2 1c 9a 3e
       -0.16649708 -0.19075996 0.025358958 0.3010021
000050 89 35 77 3e 2c a8 b2 be 10 ce 85 3e 8f c1 84 be
       0.24141516 -0.3489393 0.26133776 -0.25928923
000060 c1 c2 4e 3e dc de 8d 3a e3 73 49 3e 5e 9a e9 bd
       0.2019148 0.0010823864 0.19673114 -0.11406396
000070 49 b1 25 bd c9 1b 25 bc 67 51 ad be 28 70 9e be
       -0.040452275 -0.010077425 -0.33851168 -0.30944943
000080 9f 75 e2 3d 61 ba 0a 3e 7b e2 0b be b6 ce 14 bd
       0.11057591 0.1354766 -0.13660614 -0.036329947
000090 9e 8a a0 be 75 94 4c bd 81 e5 3e be 00 92 d0 bd
       -0.31355757 -0.049946267 -0.18642236 -0.10184097
0000a0 13 37 6d bc ba 03 54 3e 1a 15 b4 3e c2 a6 56 3e
       -0.014478463 0.20704547 0.3517235 0.2096205
0000b0 39 a8 e8 bd 76 cd ae be a4 1a 0b be 18 ca f1 bd
       -0.11360211 -0.3414113 -0.13584381 -0.118061244
0000c0 14 c6 32 3d 7e 1c 66 be 79 a0 d5 3d 49 f9 1b bd
       0.043645933 -0.22471806 0.10430998 -0.038079534
0000d0 5f 04 ae 3e 64 07 d0 bd dc 8d 36 3e c5 63 5f be
       0.3398771 -0.1015766 0.17827553 -0.21815403
0000e0 96 96 1c 3e 82 88 70 3e 08 46 1f 3e aa e2 8a be
       0.15291819 0.23489574 0.15554059 -0.27126056
0000f0 49 ad 7f bd 8e 1b a0 be 91 3f 98 3e ec 0b 86 3e
       -0.062421117 -0.31271023 0.29735997 0.2618097
000100 c6 b9 3a 3e 5f 24 8b be 94 a8 52 be 5b 5d 8b 3c
       0.1823493 -0.27176186 -0.2057212 0.017012289
000110 0e cc ed 3d 3d 43 0a be b0 bc fe 3d 33 ce e6 bc
       0.11611186 -0.13502212 0.12438333 -0.028174495
000120 40 79 36 3e 61 50 23 be 0a bf 9c bd 1f 48 ae be
       0.1781969 -0.15948631 -0.07653625 -0.340394
000130 e6 9b fe 3c 30 94 aa 3c 22 8b 93 b9 b4 80 ba 3d
       0.031080198 0.020822614 -0.00028141687 0.091065794
000140 f1 a2 4b be 9b 78 f0 bd cf f9 c8 bd e3 db b8 3c
       -0.19886376 -0.11741754 -0.09813272 0.022565788
000150 eb 82 a3 be a7 39 b2 be 02 e3 e5 bc 22 e8 60 3e
       -0.3193582 -0.3480961 -0.028062347 0.21963552
000160 f7 c3 1b be 3e eb b1 3e c3 40 33 be d1 83 82 3e
       -0.15211473 0.34749788 -0.17505173 0.25491193
000170 2b 22 2b bd ae e6 85 be 9c 62 8d be 47 39 36 3e
       -0.041780632 -0.26152557 -0.27614295 0.17795287
000180 b3 ec 1e be fe 29 75 3e 1b 27 b6 be 80 ed a6 bd
       -0.15519981 0.239418 -0.3557671 -0.08150768
000190 63 11 14 be 4c a4 96 3d f0 d1 d9 3d 3a 95 50 3e
       -0.14459758 0.07355556 0.106357455 0.20369425
0001a0 12 8d 1d 3d af ac 67 3e 76 cd 9b 3e 99 60 94 be
       0.038464613 0.22624467 0.30430192 -0.28979948
0001b0 1a 08 80 3d 95 8d da 3d 3b f4 a1 be 24 ee 6c be
       0.06251545 0.10671536 -0.31631646 -0.23137718
0001c0 34 61 25 3b 66 8c fe bd 4a 57 9d 3d 02 ba 90 3e
       0.002523494 -0.124291226 0.07682665 0.28266913
0001d0 51 22 31 3e 5b 55 03 bd cf ad cd 3a e6 8a 8f be
       0.17298247 -0.032063823 0.0015692058 -0.2803566
0001e0 44 4c 27 be 89 bf 66 3e c2 f1 46 be 3a 5f d9 bd
       -0.16337687 0.22534002 -0.19428161 -0.10613866
0001f0 f8 8f 8d be 9c 8d 2c 3e f5 d8 84 3e 2e 19 32 3e
       -0.27648902 0.16850895 0.25946775 0.17392418
000200 0a e2 ee 3d 79 f0 7c 3e 1a 63 3b be 94 ad 6d 3d
       0.11664207 0.24701108 -0.18299523 0.058026865
000210 81 71 97 3e 4e 4e eb bd c6 98 5b 3e f1 23 4b bd
       0.29578784 -0.11489545 0.21444997 -0.049594823
000220 93 7f 96 be 24 b3 ec 3c 24 09 0c 3e b5 84 1c 3e
       -0.29394206 0.028894015 0.13675362 0.15284999
000230 90 e8 ae bd 51 95 1e be 8c e5 52 be d9 db 7c 3e
       -0.085404515 -0.15486647 -0.20595378 0.2469324
000240 84 35 5c be de 0b 56 be b4 e2 aa 3e 52 9e 9d 3c
       -0.2150479 -0.20902964 0.33376086 0.019240532
000250 ee f6 2c 3d 00 e6 b9 3d 2a 8d 01 bd 27 a5 34 bd
       0.042227678 0.09077072 -0.031628765 -0.044102814
000260 e4 e4 05 be c8 69 90 3e 14 02 76 be a2 c3 b3 3e
       -0.13075596 0.28205705 -0.2402423 0.35110193
000270 5b c4 7b bd a7 46 5c 3e 62 9f 13 3e 20 67 ec 3d
       -0.061466556 0.21511327 0.14416268 0.11543107
000280 31 87 a0 3e a2 ef 9c 3e 94 ff 9e 3e f3 70 41 3e
       0.31353143 0.30651575 0.31054366 0.18890743
000290 d8 07 6c 3d 4c 36 42 be 88 f9 7d 3e 75 29 87 3d
       0.057624668 -0.18966025 0.2480222 0.06599704
0002a0 0c 3a b2 bd 33 eb 12 bd 25 dd 3d bd 0a 7b f3 bd
       -0.08702478 -0.035868835 -0.046353478 -0.11888702
0002b0 d6 2c 6e be 91 6e 91 be 19 f5 80 3e bd d5 bc bd
       -0.23259291 -0.28404668 0.25186995 -0.09220455
0002c0 c5 0e 84 be e1 99 75 3e 97 2f 41 3d 4a ff b7 3e
       -0.25792518 0.23984481 0.047164526 0.35936958
0002d0 56 78 bf bd 1c 92 8b 3e 0e 0b 07 3e dd 39 9a be
       -0.09349124 0.2725991 0.13187811 -0.3012227
0002e0 0c b4 fd bd 22 92 23 3d 90 6b 2a be 37 3e 40 be
       -0.12387857 0.039934285 -0.16642594 -0.18773733
0002f0 f0 e5 c9 bc fd c2 5a 3e cd e3 12 be d3 4a 4e be
       -0.024645776 0.21363445 -0.14344712 -0.2014573
000300 09 c4 8c 3e f8 2b 1f be 77 7c 95 3e 19 a1 aa be
       0.27493313 -0.15544116 0.29196522 -0.33326033
000310 db 13 97 3c bf b2 ab be a4 02 50 3e 05 c5 2c be
       0.018442085 -0.3353481 0.20313507 -0.16872032
000320 fc 9a 83 3e 27 65 d0 3d e0 ec 97 be c1 98 99 3e
       0.2570418 0.10175543 -0.2967291 0.29999354
000330 43 6a 81 be 64 78 3e bd 6f 08 ed 3d d5 bd 95 3e
       -0.25276384 -0.046501532 0.11573874 0.29246393
000340 76 a1 76 be 18 0a a6 3e 74 9f 01 3e 08 e2 5a bc
       -0.2408503 0.32429576 0.12658483 -0.013359554
000350 a8 af be 3d 1b f2 92 3d 96 6c 88 3e 0c 88 06 be
       0.093108475 0.07175084 0.26645344 -0.13137835
000360 90 f9 e7 3b 97 1f 6c be 78 c4 8b 3d 0f 0c b7 be
       0.0070793107 -0.23058926 0.06824583 -0.35751387
000370 90 9d 2e be 5a d4 9d be fc bb ca 3d 44 ad 9e be
       -0.17052293 -0.30826074 0.098991364 -0.30991566
000380 03 b7 94 be a5 21 be be c8 35 84 be 9c c4 f2 bd
       -0.29045877 -0.37135044 -0.25822282 -0.118539065
000390 b2 e7 34 bd 5c d3 97 bd 54 ea 4b 3e 9b 8e 9d be
       -0.044166274 -0.074133605 0.19913608 -0.30772862
0003a0 91 28 20 bd 6a ed b1 3e b1 27 0c be 34 d6 a3 be
       -0.039101187 0.34751445 -0.13687016 -0.31999362
0003b0 d8 4a 84 be 4b 3e 29 3e b5 ee f8 bd 56 39 f6 bc
       -0.2583835 0.16527669 -0.12154905 -0.030056637
0003c0 a2 69 d3 bc 8a 50 7a 3c 9c f0 e0 3d 7d c5 ac bc
       -0.025807206 0.015277991 0.109833926 -0.021090264
0003d0 b1 38 72 be ec 2b b9 3b 8c b0 7d 3e c1 06 12 3e
       -0.23654439 0.005650988 0.24774379 0.14260389
0003e0 7d 18 e1 bc 6e 52 51 be 00 97 8b be 3c bb 10 bd
       -0.027477497 -0.204416 -0.2726364 -0.03533481
0003f0 24 99 d3 3d 50 08 bb 3b d3 0e bb be e9 7b e3 bc
       0.10331944 0.005707778 -0.36534747 -0.027769046

bias f4 [320]
000000 34 7d 7b 3e 32 52 64 be fc ee 9b 3e 87 98 28 be
       0.2455948 -0.2229698 0.30455768 -0.16464435
000010 93 ba 79 bd dd 2b 90 bc 96 1b f6 3d cd 25 b0 3d
       -0.060968947 -0.01759904 0.1201698 0.0860096
000020 d3 3d d5 bd 2d 91 b3 3b 76 11 6d 3e 76 e3 a5 3e
       -0.10412183 0.005479953 0.23151192 0.324001
000030 9f b4 4c 3e 7a 36 49 be 86 7f db 3b e7 93 c0 3e
       0.19990776 -0.19649687 0.0066985516 0.3761284
000040 5c ef ae be 86 7f 4b be 34 54 5b be 14 46 df bd
       -0.34166992 -0.19872865 -0.2141884 -0.10902038
000050 6f e7 e3 bd 95 af d2 bd cc 24 3e 3e b2 73 16 be
       -0.11128127 -0.10287396 0.18568724 -0.14692572
000060 63 70 16 3e 53 93 85 3e 5e ef 61 3e 49 20 8e 3e
       0.1469131 0.26088962 0.22063968 0.27759007
000070 4a 93 90 3e 2c b4 48 bd f6 88 90 3e 81 87 82 be
       0.28237373 -0.04899995 0.28229493 -0.25494006
000080 a4 03 04 be ab 41 80 be ec 2f 55 3e f7 d0 30 be
       -0.12892014 -0.250501 0.20819062 -0.17267214
000090 9e 5d a4 3d 02 a9 a9 3d 51 00 f4 b9 ee 62 8d 3e
       0.080256686 0.08284189 -0.00046539542 0.2761454
0000a0 01 a6 3d be 2a a6 aa 3e df 7f 37 be 41 73 11 bd
       -0.18520357 0.33329898 -0.17919873 -0.035510305
0000b0 ee 43 53 3e 61 41 07 be 5b 85 6c 3e cb 09 19 3e
       0.20631382 -0.13208534 0.23097746 0.14945142
0000c0 b8 2b 96 bc a1 de 27 3e d7 92 0c be e1 d2 15 3d
       -0.018331394 0.1639352 -0.1372789 0.036578063
0000d0 b1 41 98 3d 08 54 50 3e f6 40 7b be a1 d8 b0 bd
       0.07434405 0.20344555 -0.245365 -0.08635069
0000e0 fb 55 1b be 05 5f 42 3e 19 ea 46 be e5 e2 91 be
       -0.15169518 0.1898156 -0.19425239 -0.2849342
0000f0 ca 9b 5b be 7d df b8 3e 0e e9 42 3e 92 7e 81 3c
       -0.21446148 0.36108008 0.19034216 0.015807424
000100 1b 4b b6 3e ff c3 ad 3e 13 f8 a5 be 70 f3 80 3e
       0.35604176 0.33938596 -0.32415828 0.25185728
000110 2d be a6 3d 91 63 4a be 62 64 80 3e 66 72 53 3e
       0.08141742 -0.19764544 0.25076586 0.20649108
000120 28 7d 45 3e ba 7f 8e be 34 c0 0c 3d 50 38 a2 bd
       0.19286025 -0.27831823 0.034362987 -0.07920897
000130 f0 4a 8d 3d 3b 83 47 3e 8d b3 08 3d b5 1d 34 bd
       0.06899059 0.19483654 0.033374358 -0.043973643
000140 22 9b 68 be 1e 75 82 3e 4a 06 8a 3e b7 8c 9b 3e
       -0.22715428 0.25479978 0.26957923 0.30380794
000150 ec 0d 54 3c 8d 08 ec 3d 67 58 e0 bd 80 a9 54 be
       0.012942772 0.115250684 -0.109543614 -0.20767784
000160 4a cc ad 3e aa ae 78 be 9b c1 23 be f3 49 60 be
       0.33944923 -0.24285379 -0.15991823 -0.2190321
000170 1d 35 73 3e fd 49 98 3b 5e 1c a9 be ec ab 95 bd
       0.2375073 0.004647492 -0.33029455 -0.07308182
000180 4a 04 53 3e af 50 37 bd 54 eb 10 3d 2c e2 1d 3e
       0.20607105 -0.04475468 0.035380676 0.15418309
000190 ae 2e 93 be 78 1a 29 be d9 8e e2 bd 3d c2 85 be
       -0.2874655 -0.16514003 -0.11062402 -0.26124755
0001a0 6e cf 5e be 48 76 80 3e 7d 2a 45 be 41 d3 81 bd
       -0.21758816 0.2509024 -0.19254489 -0.063391216
0001b0 28 2e 76 3e 33 a5 b6 3c 25 e3 cb 3d b9 22 1e 3e
       0.24041045 0.02229557 0.09955434 0.15442933
0001c0 6d ee df bd cd 93 33 3e 6b 53 ff 3d 47 4f f0 bd
       -0.10934148 0.1753685 0.124670826 -0.11733871
0001d0 fe 8b 9f 3d ef 05 9b 3e 9d db 0a 3e aa 9d 7e bd
       0.07790373 0.30277964 0.13560338 -0.06216208
0001e0 71 4c af 3c 15 2d c3 bd e8 cf 3e be 76 ab b4 3e
       0.021398755 -0.09530083 -0.18633997 0.35287064
0001f0 22 b8 bd bd af 69 4a be 3e 81 77 be 48 a3 76 3e
       -0.09263636 -0.19766878 -0.24170396 0.24085724
000200 26 34 85 be 29 9f 8e 3b dd 4b 86 3e 91 79 0d be
       -0.2601635 0.0043524695 0.26229754 -0.13815905
000210 8f e7 bd 3e 9e 5c 0f be da 33 62 3e 21 c8 b8 3d
       0.37090728 -0.14000174 0.22090092 0.090225466
000220 ff 23 09 3d 13 20 8e 3e b0 5b 40 3e 56 98 66 3e
       0.033481594 0.27758846 0.18784976 0.22519049
000230 2d bc 9c bc 28 cf 26 be 74 7d 80 be 39 80 a5 3d
       -0.019132698 -0.16289961 -0.25095713 0.08081097
000240 c4 9f b2 3e 62 71 c2 3e 34 b9 3b be 99 a6 c3 3e
       0.34887516 0.3797713 -0.18332368 0.3821304
000250 d1 fe 8b be 85 f7 3a be 0a ce e5 bd a4 80 50 3e
       -0.27342847 -0.18258484 -0.112209395 0.20361573
000260 6c f3 c1 be 3c 11 cd 3c f6 9d db bc 55 35 62 bd
       -0.3788103 0.025032632 -0.02680872 -0.055226643
000270 8a 64 1d 3d 5a 1d f6 bd d8 ab 20 be ed 37 61 3e
       0.03842596 -0.12017317 -0.15690553 0.2199399
000280 9d f4 01 be 12 1c 7f be 17 7f 31 be 91 fc 91 3e
       -0.12690969 -0.24913052 -0.17333637 0.28513005
000290 2f de 11 bc 51 38 78 be 79 34 11 3e a9 d2 52 be
       -0.00890307 -0.24240233 0.14180173 -0.20588173
0002a0 1f 6e f3 3c a4 f9 95 be 8a 22 64 3e 93 3b 65 bd
       0.029715596 -0.29292023 0.222788 -0.055965018
0002b0 99 fd c8 bd 52 32 05 3e 8f f6 94 be 81 67 15 3d
       -0.09813995 0.13007477 -0.2909436 0.036475662
0002c0 6f 6f f1 3d 5b a2 93 3e d1 a1 61 be 63 91 4d be
       0.117888324 0.28834805 -0.22034384 -0.20074992
0002d0 9a 62 15 be 87 98 89 be fc 03 06 3e d4 69 21 bc
       -0.14588395 -0.26874182 0.13087457 -0.009851892
0002e0 19 25 de 3d 44 a5 93 3d 89 06 8d 3e 3a bf 4b be
       0.108469196 0.07209256 0.27544048 -0.19897166
0002f0 79 7e f1 3d 26 05 ab bd 79 37 15 be bb af 59 be
       0.11791701 -0.08350591 -0.14571942 -0.21258442
000300 16 2a fb bd f4 5e 5d be 01 aa c0 3e fe 35 0d be
       -0.12263887 -0.21618253 0.37629703 -0.13790128
000310 0a c6 a0 bd c3 84 56 bc 20 0c 8e be 2a 72 a2 be
       -0.07850273 -0.013093176 -0.27743626 -0.31727725
000320 3a 09 31 be 48 13 91 3e a7 3a 9e 3d 8b 14 64 be
       -0.17288676 0.28335023 0.07726031 -0.22273462
000330 1f dd f3 3c 42 33 04 be 00 d0 f7 3c 98 13 59 be
       0.029768525 -0.12910178 0.03025055 -0.2119888
000340 36 4a 5c 3e 80 2a 73 bd b6 bc 87 bd e0 c7 9e be
       0.21512684 -0.059366703 -0.06627791 -0.31011868
000350 43 b4 21 bd 3b 88 ea 3d 29 48 a4 be 54 02 67 be
       -0.03947855 0.11451765 -0.32086304 -0.22559482
000360 3b 12 15 bd 90 1d fc bc 2b 4a 80 3e 88 26 c3 bd
       -0.03639434 -0.030775815 0.25056586 -0.09528834
000370 82 22 ce bc 86 85 10 be c1 f2 47 be 6f 50 0a be
       -0.025162939 -0.14113435 -0.19526197 -0.13507245
000380 7a 04 a6 3d cf 12 8c 3e 67 ad 9b 3e 6f 6f 68 be
       0.081063226 0.273581 0.30405733 -0.22698759
000390 37 a1 9d be 40 d8 80 bd ce 92 8f 3c bb 4f b8 be
       -0.3078706 -0.062912464 0.017526057 -0.3599833
0003a0 dc 25 8d 3e 0f 37 22 be e8 9e 82 3e 5e ab 35 3e
       0.27567947 -0.15841316 0.2551186 0.17741153
0003b0 02 c6 41 be 07 29 5a bc ab e9 a3 bc 14 84 35 be
       -0.1892319 -0.013315446 -0.020008883 -0.17726165
0003c0 1a 66 13 bd f0 c3 60 be cd 81 ad be 09 3a 51 3e
       -0.035986044 -0.21949744 -0.33888093 0.20432295
0003d0 1a 49 96 3c 1d 09 1d be ac 5a 9b bd 08 b7 03 3e
       0.018345404 -0.15335508 -0.07585654 0.1286279
0003e0 2d ac a2 3e 36 fd 09 3c 7c 05 a4 bc 06 55 37 be
       0.31771985 0.008422187 -0.020022146 -0.17903528
0003f0 83 fb 81 3e 6b 2e 4a be 8b 5b 6c 3d 08 fc be 3a
       0.253872 -0.1974427 0.05770449 0.0014570961

weight_ih_l0 f4 [240, 320]
000000 14 eb 03 3d de 4e a9 3c da 6f 5c bc 31 8c 35 bb
       0.03220661 0.02066749 -0.013454402 -0.0027701969
000010 8b fa 42 ba 4d 4e 61 bc 19 e0 c0 bc 74 21 2e 3d
       -0.00074378465 -0.0137515785 -0.023544358 0.042512372
000020 3c da 87 ba 85 55 2d 3c c4 d3 56 bc e4 91 00 3d
       -0.0010364722 0.0105794715 -0.013112012 0.031389132
000030 7c d9 a5 bc 4d 51 75 3c 1e 92 f0 bb 50 f3 85 3d
       -0.020245306 0.014972997 -0.0073416373 0.06540549
000040 17 25 30 3b 48 12 94 3a 87 d2 9d 3a fd d5 d3 ba
       0.0026877576 0.0011296952 0.0012040891 -0.0016161796
000050 b3 2d 72 39 c8 09 07 bb e4 50 f7 bb 51 56 c3 3b
       0.00023095943 -0.0020605195 -0.0075474847 0.0059612175
000060 5c 1a f0 3c 35 72 d9 3c 2b 26 af 39 31 eb 09 3d
       0.029309444 0.026543716 0.00033407038 0.03367156
000070 1f bd fe 3c 46 a5 92 bb 90 97 5e 3d 89 f2 9a b8
       0.03109604 -0.0044752685 0.05434376 -7.388468e-05
000080 0c e9 04 bc d2 da 28 3a 69 ed 4f 3c c8 1a d1 38
       -0.008112203 0.0006441298 0.01269088 9.970885e-05
000090 14 e0 ac bc ab 04 29 3c e8 3f 0f bd f8 88 21 3d
       -0.021102943 0.010316054 -0.034973055 0.039437264
0000a0 ee 22 b3 b9 74 7a 3b bd ef c8 6e 3c 4c 5a 27 3d
       -0.00034167565 -0.045771077 0.0145742735 0.0408576
0000b0 8a 9b 35 bb 56 30 09 3a cb 1f ef 3c 2f 02 5a 3c
       -0.0027711117 0.0005233338 0.029189965 0.013306185
0000c0 95 f9 40 3a 0b 36 d6 bb 6f ee 2b bc d5 95 17 3c
       0.00073614094 -0.006537204 -0.010493859 0.009252031
0000d0 80 58 52 bb 48 83 1b bc d3 d7 99 b8 33 35 69 bb
       -0.0032096207 -0.009491749 -7.335809e-05 -0.0035584688
0000e0 96 87 38 ba 66 6a cf 3c f8 01 91 ba 5f 95 ef 3a
       -0.0007039247 0.02531929 -0.0011063209 0.0018278769
0000f0 c3 f6 a1 ba 4c 4e 33 3c 2b 2d 4a 3d fa 3f f1 3c
       -0.0012356866 0.01094396 0.04935948 0.029449452
000100 fb 62 22 ba 5f 57 1c bd 1f 42 4a bc e9 df 7d 3c
       -0.0006194559 -0.03816926 -0.012344866 0.015495279
000110 13 ea ae 3a c9 6c 4e 3c a5 ab ca 3c a0 c2 9d 3c
       0.0013344906 0.012599179 0.02474005 0.019257843
000120 8b b1 14 3d 5a 46 03 ba 0f 28 dd bb 5a 8a c4 3b
       0.03630213 -0.00050077366 -0.00674916 0.005997938
000130 da 60 3a 3b e7 d4 3d 3d 2b c6 a5 ba 7d 8a a8 bb
       0.0028439076 0.046345618 -0.001264756 -0.005143462
000140 3e f4 4c bc 79 03 43 3d 80 1e cf bb c1 79 ff bb
       -0.012509404 0.047610734 -0.0063207746 -0.0077964966
000150 51 16 b7 3c 29 69 e4 bc 74 44 1b b9 26 27 3f 3b
       0.022349508 -0.027882176 -0.00014807453 0.0029167621
000160 cb 30 b1 3c 31 05 da 3a cc 98 c8 3c 63 e6 f2 39
       0.021629712 0.0016633627 0.024486922 0.00046329488
000170 1d 17 26 3d 7d 62 a2 bc 19 9c ca ba 15 c4 4a ba
       0.040549386 -0.019822353 -0.0015457898 -0.0007734907
000180 eb 86 ca bc 97 97 78 bc 1a d9 6f b9 77 0d 62 bb
       -0.024722537 -0.015172861 -0.00022873693 -0.003449289
000190 73 ad 04 3c fc 22 b8 3b a8 33 bb b9 2f 63 0f ba
       0.008097994 0.005619405 -0.00035705906 -0.00054697966
0001a0 04 b7 3d 3a 9e bb 57 3d c5 c8 3b 3b 10 81 8f bc
       0.0007237049 0.05266916 0.0028653604 -0.017517596
0001b0 d8 38 87 3b 50 f4 17 3c 3e 31 3f bb 57 bb 40 3c
       0.0041266493 0.009274557 -0.0029173638 0.011763415
0001c0 c2 50 16 3d 85 bc 01 bd f1 2b 37 3d 13 0a fd 3c
       0.03669811 -0.031673927 0.04471964 0.030888593
0001d0 7d 74 93 3c c7 c8 28 3d 6b 88 85 ba a5 1c c0 bc
       0.017999882 0.0412071 -0.001018775 -0.023451159
0001e0 2d 3d cf bc d6 b6 96 39 52 c6 a0 3c 9c 99 ec 3c
       -0.025297726 0.00028746453 0.019625816 0.02888184
0001f0 8d 28 a4 3c 46 e7 54 3c fc df 24 3b c8 8c 66 3b
       0.020038867 0.012994593 0.002515792 0.0035179127
000200 74 ec d8 bb 46 92 bd 3a cb d6 04 ba d3 c2 0b bc
       -0.0066199843 0.0014463149 -0.0005067407 -0.008530336
000210 ca bf a1 bb 1a b5 58 3c 0f 92 2e bc 54 6a d1 3b
       -0.004936193 0.013226772 -0.01065494 0.006390849
000220 4a b8 82 3b e0 d7 aa 3c fd 8f f9 ba 72 ad e5 3c
       0.003989254 0.02085489 -0.0019040104 0.028036807
000230 71 37 83 bc 7b 6e 91 3b 90 53 78 3b 06 29 15 bb
       -0.016017647 0.004438219 0.0037891604 -0.0022760048
000240 ea 00 a1 bb f7 1c 48 3d 60 be c3 3b 76 a2 b8 bc
       -0.004913439 0.048855748 0.005973622 -0.022538405
000250 37 0f 9c bb d8 8f 0e 3a 54 bb 6b 3b 05 09 17 3b
       -0.004762556 0.00054383045 0.003596981 0.0023046148
000260 23 28 07 3b 34 0a 5a 3c 11 43 23 bb 8b 1f 99 3a
       0.0020623289 0.013308097 -0.00249118 0.0011682374
000270 4b 45 ae 3b 58 1f 4b bc 4f 37 2c 3d 9d a5 53 3c
       0.005318319 -0.01239761 0.042044934 0.012917903
000280 79 4d 1c 3c 75 26 0e 3c 96 4a a7 3a ab 04 92 3d
       0.009539955 0.008676161 0.0012763317 0.071297966
000290 cd d5 10 bc ea ab 65 3c e9 ea c0 bb 67 28 97 3b
       -0.008840037 0.014018038 -0.0058873785 0.0046129706
0002a0 df c2 bd 3c e4 78 b9 3a 48 6d 66 3d 9a 7d 18 3c
       0.02316421 0.0014150408 0.056256562 0.0093072895
0002b0 f6 7a 04 3d 78 de 39 bc 26 05 97 bc e7 cc a0 39
       0.032343827 -0.011344545 -0.018435072 0.00030670242
0002c0 95 59 cb bb 8a cb f6 bc 8d 49 0a 39 50 d4 8e b9
       -0.0062057474 -0.030126352 0.00013188105 -0.00027242536
0002d0 de a9 be 3c 75 72 1e 3b de 3c e9 bb 59 de b1 bc
       0.023274358 0.0024177108 -0.0071178516 -0.021712469
0002e0 1b 52 96 bb 23 eb a5 ba 7b 5a ec bc 19 42 00 3c
       -0.0045874245 -0.0012658577 -0.028851738 0.007828259
0002f0 0e 19 55 39 fb 47 94 3b 1d 9b 42 ba 75 1d 08 b9
       0.00020322597 0.0045251823 -0.00074236264 -0.00012980944
000300 94 16 8f 3b f3 66 2d 3b fc ed 81 3d 6b 34 4e bb
       0.004366705 0.0026459068 0.0634422 -0.003146435
000310 56 5b 30 3c 94 e6 cf ba 46 55 83 3a 69 c6 39 bb
       0.010763964 -0.0015861564 0.001001992 -0.0028347021
000320 c4 98 05 bb 66 42 c2 3c c2 92 13 3b ad c5 db 3a
       -0.0020385245 0.023713302 0.0022517894 0.0016767286
000330 b9 50 e0 bb 46 e9 b1 3c 37 98 b3 3c 7b 36 ce 3a
       -0.0068455604 0.021717679 0.021923168 0.0015732789
000340 23 6e 3c 3b e8 99 ff 3b e9 9e 54 bb 5a 0c ba 3c
       0.002875217 0.0078003295 -0.003244335 0.022710968
000350 88 c7 86 3b 3e 48 17 3b 41 5a 72 3a 9a 98 f6 3b
       0.0041131414 0.0023083831 0.0009245016 0.0075255157
000360 fa 76 51 bc 7d 09 4f 3b 20 80 ce 3b 55 56 5a bb
       -0.012784714 0.0031591349 0.006301895 -0.0033315618
000370 dc 74 60 3c 73 47 d6 3c 3b 29 83 bb f7 b8 3e 3b
       0.013699736 0.026157117 -0.004002718 0.0029101947
000380 1a 8d fc 3c 58 b1 05 bc 47 f8 49 bd b3 a6 1c 3a
       0.030829001 -0.008159958 -0.04930904 0.0005975768
000390 f2 36 18 3a a7 29 31 bb 9a 70 05 39 92 7c 05 3b
       0.00058065273 -0.0027032883 0.00012725816 0.002036844
0003a0 d2 a6 1f bc 65 49 1b bc 15 6d f6 3b 8d 04 8c bb
       -0.009744363 -0.009477948 0.007520328 -0.0042730034
0003b0 ea f8 4b 3d cb a6 92 3b 4b ac 1d ba 1f 40 a5 3c
       0.04979793 0.0044754497 -0.00060147484 0.020172177
0003c0 f9 a8 f1 3c 3e b1 f3 bb a3 75 03 bc d4 90 9a 3c
       0.029499518 -0.0074369004 -0.008023652 0.018867888
0003d0 de ac ce 3c dd 01 0c b9 a0 47 9f 3a b5 a0 0f bc
       0.025228914 -0.00013352135 0.0012152083 -0.008766343
0003e0 3b 81 77 3d c3 41 0d bb 59 18 3d 3b be d7 45 ba
       0.06042598 -0.002155409 0.0028853624 -0.00075471017
0003f0 41 5b b1 3c fd 36 00 3c 21 ad 58 bb da 96 99 b9
       0.021649959 0.00782561 -0.0033062177 -0.00029294827

weight_hh_l0 f4 [240, 80]
000000 ee 38 02 bd 1e d5 88 3c 4c 72 80 3c fd 8a 46 bb
       -0.031792574 0.016703185 0.015679501 -0.0030295246
000010 23 44 7f 3b 20 a4 62 bd af 5b 29 bc 14 54 2b 3d
       0.0038950525 -0.055332303 -0.0103368005 0.04182823
000020 77 92 a0 3c 10 93 93 b9 1b 75 f1 bc 96 74 33 bc
       0.01960109 -0.00028147595 -0.029474786 -0.010953089
000030 3f 39 11 3c cb 4b 09 3d b0 01 36 3d d7 5f 26 3d
       0.008863746 0.033519547 0.044435203 0.040618744
000040 78 7b 36 3d 90 d0 8b 3c a5 f3 30 bd a4 95 be 3c
       0.044551343 0.017067224 -0.043201108 0.023264714
000050 13 f1 07 bb 56 2a c7 3b 84 ba 96 3c 92 15 7d ba
       -0.0020743057 0.006078045 0.018399484 -0.00096543983
000060 50 25 c9 3b c5 17 9b bc 09 5b 07 3c 0b 3c a0 3b
       0.006138481 -0.018932233 0.008261451 0.00488997
000070 72 96 63 3c b6 45 55 3b 24 b4 d8 3b c2 12 6d 3c
       0.013890849 0.0032542772 0.0066132713 0.014469804
000080 20 f8 97 3a 1a df 3f bd 3f 5e 61 3c 46 bc 03 3c
       0.0011594333 -0.046843626 0.01375538 0.008040493
000090 59 97 21 bd 47 ff 4d 3d d4 eb 3a 3d de b1 0e bd
       -0.039450977 0.05029228 0.04563506 -0.034837596
0000a0 c8 15 d7 bb a1 db 53 bc db e0 a8 bc ca cc b3 bc
       -0.006563876 -0.012930782 -0.020615032 -0.021948237
0000b0 e8 06 e8 3c c7 39 46 3c 37 97 e3 3b eb 77 34 3b
       0.028323606 0.012098736 0.0069455164 0.0027537297
0000c0 0c 9b b0 3b 57 12 f4 3c dd 94 aa 3c f5 d7 4c 3a
       0.005389577 0.029793901 0.020822937 0.00078141625
0000d0 54 46 ec 3c 79 2b f4 3b bb 6e 64 bc 36 41 84 3b
       0.028842129 0.0074514714 -0.013942416 0.004036094
0000e0 20 98 80 bc f5 ad e0 bc f1 cc 5d bd 0a 15 4b 3d
       -0.015697539 -0.0274267 -0.054150525 0.04958061
0000f0 a6 4e da 3c 45 a3 96 bb c2 99 06 bd 8d e8 23 ba
       0.02664883 -0.0045971 -0.03286148 -0.00062526093
000100 18 8c ed 3a 0b ff 7a 3d 7f e3 59 bd e2 30 04 3c
       0.0018123416 0.061278384 -0.053195473 0.008068295
000110 62 94 1b 3d fd d5 9c bc 91 1d 4a bd ea 9e bb bc
       0.037983306 -0.019145006 -0.049344603 -0.022902925
000120 be ce 6e bb 85 13 85 3c 23 60 37 39 4c e6 b5 3b
       -0.0036439146 0.01624466 0.00017488054 0.005551135
000130 f8 75 fb 3c 1a ad 65 3d d4 2d 31 bb 84 3e 06 bb
       0.0306959 0.056073286 -0.0027035372 -0.002048404
000140 ed ce 4e bb a1 4d fb bb 89 28 d2 39 55 3a 35 bb
       -0.0031556443 -0.007669166 0.00040084522 -0.0027653177
000150 07 0a 13 bb 13 13 59 3b bf 10 af 39 33 fa 0e bb
       -0.0022436397 0.0033122941 0.00033391078 -0.002181661
000160 26 8e b8 3a 1c c6 91 3a ff f2 00 3a 64 65 0d ba
       0.001408045 0.0011121663 0.0004919022 -0.00053938315
000170 b6 0e e1 3a 66 9d 48 bb b6 ac 27 bc fc c5 93 ba
       0.0017170522 -0.0030611395 -0.010234049 -0.0011274214
000180 f5 1b c6 3b 6b 10 85 3a f6 ca 62 3b 41 b1 27 bb
       0.006045813 0.0010151988 0.0034605837 -0.002558783
000190 59 3c 12 3a 0a 6b 9f ba e5 f8 54 3b ce 69 62 bc
       0.00055784505 -0.0012162637 0.0032496986 -0.013819171
0001a0 73 b9 22 3c 2c 78 b3 ba 53 d7 48 bb df c5 a7 3b
       0.00993191 -0.001369243 -0.0030645921 0.0051200236
0001b0 68 13 24 bb ef bc 80 ba 8a a9 7d 39 d6 80 7b 3a
       -0.002503598 -0.0009821932 0.00024191118 0.0009594088
0001c0 75 5b fd b7 15 89 a4 3a 41 f6 a9 b9 eb fc 9b 3a
       -3.0202538e-05 0.0012553061 -0.00032417665 0.0011900937
0001d0 73 9b bc 3b 1f 0a 4f 3b e2 ed 74 bb 23 fb d2 bb
       0.0057558357 0.0031591726 -0.0037373235 -0.0064386292
0001e0 9d 83 90 ba 99 7a 22 ba f3 c0 43 b8 16 73 4f ba
       -0.0011025552 -0.0006198078 -4.667132e-05 -0.00079135725
0001f0 61 2a 23 bb a6 a8 6a ba ee 5a 95 ba 20 1f 85 ba
       -0.0024897086 -0.0008951522 -0.0011394897 -0.0010156371
000200 ba 93 dc 39 77 84 45 3a 8a 42 a9 bb 5e f5 10 3a
       0.00042071735 0.00075346924 -0.005165403 0.00055297266
000210 dd 53 42 39 8d 16 95 3a fb f1 01 bb 93 aa 52 3a
       0.00018532523 0.0011374519 -0.001982807 0.0008036282
000220 55 53 14 3a 3b 61 8f bb 29 d6 20 39 39 c1 94 bb
       0.00056581694 -0.0043756044 0.0001533857 -0.0045396355
000230 f9 d1 74 38 26 a5 ab 3a 70 44 87 3b 74 62 15 bb
       5.8369686e-05 0.0013095483 0.0041280314 -0.0022794278
000240 15 38 4c b9 8d f6 1e 3c d7 cf f5 ba 3f 6f ae 3a
       -0.00019475848 0.009702337 -0.0018753958 0.00133083
000250 75 d6 a3 bb 5d be 62 39 83 f0 8c 3a 68 c5 4b 3b
       -0.0049999305 0.00021623955 0.001075283 0.0031093005
000260 bb 4a 0e 3b ad 7a 6b bc 25 fb b3 38 07 53 92 b9
       0.0021712023 -0.01437251 8.5821644e-05 -0.0002790915
000270 24 da 64 ba ad ce 10 bc d5 6c 2c 3b 04 83 de 39
       -0.0008730015 -0.008838338 0.0026309986 0.00042440754
000280 96 66 60 bc e8 a4 44 bd ab 64 54 bb a8 aa 48 3c
       -0.013696333 -0.04800883 -0.0032408636 0.012247719
000290 f6 86 8c 3c 62 b9 b5 bc de a5 9e 3c c0 97 92 bc
       0.017154198 -0.022183124 0.019366201 -0.017894626
0002a0 fa 89 2e 3c 5f 66 18 3d b8 f0 ff 3a fe 70 86 3b
       0.010653013 0.037207004 0.0019526696 0.004102825
0002b0 8f ef c9 bc b4 1e d9 3a 07 b9 88 bd f2 03 b9 bc
       -0.024650363 0.0016564936 -0.06675916 -0.02258489
0002c0 47 3b 11 bd d0 68 aa 3b 65 b5 f1 3c d8 fd c3 bc
       -0.035456922 0.005200483 0.029505441 -0.023924753
0002d0 38 b9 3a bb b2 f5 84 3c a0 7f 14 3c c6 0a 71 bd
       -0.0028491747 0.016230438 0.009063631 -0.058848165
0002e0 16 b2 db 3b 80 4c 20 3c 86 ca d4 bc e9 76 b9 3c
       0.006704579 0.009783864 -0.025975477 0.022639709
0002f0 96 d8 ab bc 79 74 54 3c 2f e4 1e bc 17 24 c8 bc
       -0.0209773 0.012967222 -0.009697958 -0.024431271
000300 4c 03 87 3b 11 23 7d 3c 31 69 08 bd 34 70 0b 3d
       0.004120266 0.015450255 -0.033303443 0.034042552
000310 af 2e 38 bc 80 56 78 3d 6b 1c 5b bc 59 36 7f 3a
       -0.011241599 0.060629368 -0.013373475 0.00097355765
000320 cd d3 f7 bc a0 99 74 b9 7e 18 a8 3c 36 56 3a 3b
       -0.030252362 -0.00023326883 0.020519491 0.0028432733
000330 13 32 90 3c fb 0a 51 bb 18 c5 e1 3c 8d cf 24 3b
       0.017602002 -0.0031897414 0.027559802 0.0025148124
000340 bf 16 96 bc df 99 d7 3b 6f 50 33 3c a7 15 45 3b
       -0.018321393 0.006579622 0.01094447 0.003007272
000350 54 98 9a bb 78 2b 01 3d e1 cd 85 3c 4f d9 4f 3c
       -0.004717866 0.031535596 0.016333522 0.012686088
000360 ff c8 c3 bc c8 65 f4 3c bf c0 0b bc a5 ae fe bb
       -0.023899553 0.02983369 -0.008529841 -0.007772284
000370 2a bc 61 3b d8 27 fb bb c8 ce c0 bc d5 12 aa bc
       0.003444443 -0.007664662 -0.023536101 -0.020760933
000380 a9 a9 ef 39 71 63 8e bc 82 ea d5 bc 51 3a a4 3c
       0.0004571204 -0.017381402 -0.026112799 0.020047339
000390 c5 cf 83 3d 14 0c c4 bb 23 c6 d3 bc e1 23 3e 3d
       0.06436113 -0.005982885 -0.025851315 0.046420936
0003a0 fb 01 42 3c 82 6f 86 bd b0 7d 15 3c 70 2f 19 bb
       0.0118412925 -0.06564237 0.0091242045 -0.0023374222
0003b0 f0 b5 15 bc 3c 68 31 bd b1 e1 3d bc 41 c9 3b 3b
       -0.009137616 -0.043312296 -0.011589454 0.0028653892
0003c0 e4 d0 55 bc 59 a5 17 bd 2c 22 bc 38 65 f2 ad bc
       -0.013050292 -0.037022922 8.9709036e-05 -0.021233747
0003d0 0b 84 ec 3a f2 7d 98 3c 14 0e e0 bb 2b 97 bb bb
       0.0018044723 0.018614743 -0.0068376157 -0.0057248077
0003e0 72 29 0e 3c ca 04 7d bc 5c b0 8d 3b 67 09 22 bb
       0.0086768735 -0.015443036 0.004324002 -0.0024724843
0003f0 b2 99 ca bb e1 7e a5 bb 0e a5 c5 3a e1 11 f0 3b
       -0.0061828727 -0.0050505255 0.0015079097 0.00732635

bias_ih_l0 f4 [240]
000000 12 7f ae bb 8e a6 3e ba 75 f5 0f bd ca ff 2c 3d
       -0.0053252066 -0.00072727434 -0.035146195 0.042236127
000010 8b dd 10 3d 8e af 51 bc 53 7d 77 3d 26 f8 cc 3b
       0.03536753 -0.012798203 0.060422253 0.0062551675
000020 f2 f9 71 bd 17 55 28 3d bc 24 9f 3c e4 3d e1 bc
       -0.059076257 0.041096773 0.019426696 -0.027495332
000030 97 de 21 3a 16 65 03 3d 6c 97 92 3c 39 74 4a bb
       0.0006174831 0.032078825 0.01789447 -0.0030892028
000040 11 df 8c bc 48 c3 b7 bc 11 a1 e1 bc 5f ac a1 3c
       -0.01719621 -0.022431985 -0.027542623 0.019735513
000050 38 17 0f bd 95 2f 26 bd 07 50 19 bd ae 54 55 3d
       -0.034934253 -0.04057272 -0.037429836 0.05208271
000060 38 f2 1f 3d 6e 73 2b bc 41 13 06 3d d8 72 3b 3d
       0.039049357 -0.010464532 0.032733206 0.04576382
000070 29 a2 da bc 89 95 25 3d 3b 76 dc bc 27 79 59 3c
       -0.026688652 0.04042581 -0.026911845 0.013273514
000080 f3 2a 8a 3c ce d3 9e 3d fa e1 7f bb 76 69 4a bd
       0.016866183 0.07755242 -0.0039044605 -0.04941698
000090 0d a0 ed bc e1 94 01 3c d2 4f 9d bb 31 9a c3 bc
       -0.029006982 0.007909031 -0.004800775 -0.023877235
0000a0 3f e7 c6 bc 17 bf 77 3d e0 28 2b bb 8c 1c 77 3d
       -0.024280189 0.06048497 -0.0026116893 0.06032996
0000b0 09 45 8f bd cd 7d ca bc 31 fa 52 bc bb 94 04 bd
       -0.06995589 -0.02471819 -0.012877033 -0.032368403
0000c0 c9 91 1b 3d fd ab ab bc 93 62 92 3d 7f 47 6d bd
       0.03798083 -0.020956034 0.07147708 -0.057929512
0000d0 b6 c2 e6 3c db 6d 5c bc c7 dc b9 3c 98 1d 0c 3c
       0.028169017 -0.013453926 0.022688283 0.008551978
0000e0 7d a5 74 bd e0 61 a7 3d 75 15 fb 3c 0c 8f 97 3c
       -0.059728134 0.08172965 0.03064988 0.018500827
0000f0 6a eb 11 3d 10 6c fb 3b 4d 24 2a 3d 49 df 45 bd
       0.0356249 0.007672794 0.041538525 -0.048308644
000100 46 90 04 3d 94 3e 81 bb b8 6d a1 3b 0e 00 20 3c
       0.032364152 -0.0039442275 0.0049264096 0.009765638
000110 6a 86 f9 bc 96 a8 9c bb 48 99 eb bc 02 b5 1d bc
       -0.030459601 -0.004780839 -0.028759614 -0.009625675
000120 5e 50 2e bd 64 f5 b2 3d 4c 60 13 3d 62 4e 5c bd
       -0.042557113 0.08738211 0.035980508 -0.05378569
000130 c3 23 8a 3d 9d 07 6c 3d e3 63 34 bd 4c 2c 44 bd
       0.06745102 0.057624448 -0.044040572 -0.047893807
000140 7b 2d 1c 3d 0c 36 05 bd 25 c8 f8 bc f2 11 79 3d
       0.03812931 -0.032522246 -0.030368874 0.06080813
000150 07 7f 11 bc a4 47 3b 3c 8a e9 0d bd 72 82 76 3c
       -0.008880383 0.011430655 -0.03464655 0.015045749
000160 9e b2 54 bc 22 67 33 3d d4 4c 92 bc 58 b9 51 3d
       -0.012982039 0.043799527 -0.0178589 0.05120215
000170 b2 5f 89 bb be b9 6a bd 05 f7 88 bc f2 14 b4 bc
       -0.004192316 -0.057306044 -0.01671935 -0.021982644
000180 17 36 84 bb e9 f2 18 bd 2c 99 89 3d c1 fb a2 bc
       -0.0040347683 -0.037341032 0.06718668 -0.019895436
000190 27 b3 33 3c bf 63 ce bc e7 b0 24 3c 0c 02 75 bd
       0.010968006 -0.025194047 0.010051942 -0.059816405
0001a0 1d aa fc 3c 0d ec 6e 3d a7 2d 86 bd 51 1d 05 bd
       0.030842835 0.058330584 -0.06551676 -0.03249866
0001b0 c1 55 9e b8 3e f4 a7 bc 1f fe 95 3c f3 ca 1e 3d
       -7.55e-05 -0.020502206 0.018309651 0.038767766
0001c0 64 37 16 bd 92 df 38 bd 77 21 ab 3c 2a 10 bd 3c
       -0.03667392 -0.04513509 0.02088998 0.023078997
0001d0 db d0 75 bc ad 58 28 3d fe 19 5b bd ca 4c 05 3d
       -0.015003408 0.041100193 -0.053491585 0.032543935
0001e0 1d f6 37 3c f4 7b e5 3c 77 1c 9d 3c 49 c4 71 bc
       0.011228112 0.028013207 0.019178612 -0.014756271
0001f0 bc c3 01 3d 9a 67 11 3d 58 60 79 3d f4 7b 33 bd
       0.031680807 0.035499193 0.060882896 -0.043819383
000200 bb 95 3c 3d 84 a3 15 3d c5 90 45 3d 44 22 ad bb
       0.04604123 0.036532894 0.048233766 -0.005283626
000210 fe 77 3b 3d 94 52 c7 bd 1c 72 fc bc 88 21 5c 3d
       0.04576873 -0.097325474 -0.03081613 0.053742915
000220 e9 ab 0a 3d f1 f4 22 3d 4e 35 c2 bc cd db fc bc
       0.033855353 0.039784376 -0.023707058 -0.030866528
000230 9c 1f 8b bc 4b 87 ff bc 63 72 3a bd d5 01 29 bc
       -0.016982846 -0.031192442 -0.045519244 -0.010315378
000240 f4 8d 27 bd 06 c3 3c bb 9e d7 3f 3c b8 16 e5 3c
       -0.04090686 -0.0028802766 0.011709122 0.027964935
000250 f2 61 a4 bb 41 39 24 3d 6a 5f 65 3d aa 2b 1d bd
       -0.005016559 0.040093664 0.055999197 -0.03837172
000260 eb 31 25 bd 7d 9f d0 bb ff 83 96 bc 2b a4 76 3d
       -0.04033081 -0.0063666687 -0.018373488 0.060215157
000270 c3 1e 8c bd 98 3c fc bc 19 cc 0b 3d e6 01 81 3c
       -0.06841805 -0.030790612 0.03413019 0.015747976
000280 ec e5 76 bc 12 0a 67 3c f0 c4 d5 3d 3e 70 73 bd
       -0.015069466 0.014101522 0.104379535 -0.059433214
000290 5f 87 88 bc d6 53 b2 3d 1b 06 77 3d 83 99 39 bd
       -0.016666112 0.08707397 0.060308557 -0.045312416
0002a0 0d 6c e2 3c 8d 57 ce 3d 21 2b 51 3d da c5 c8 bd
       0.027639413 0.10075293 0.05106652 -0.09803362
0002b0 3e 63 01 bd 82 3b 6c 3d 67 c2 a3 bd 76 dd 9c bc
       -0.031588785 0.05767394 -0.07996064 -0.01914857
0002c0 45 6d 91 bd c8 5a c3 3d 5e 58 33 bd cb 75 d8 3d
       -0.0710092 0.095387995 -0.043785445 0.10569342
0002d0 eb c4 94 bd b1 64 18 bc 77 40 42 3d 36 59 66 3d
       -0.072641216 -0.00930135 0.04742476 0.056237422
0002e0 3e b7 81 3d 80 aa ba 3d 5e f4 99 bd 6e cc 1a 3d
       0.06333779 0.091145515 -0.075173125 0.037792616
0002f0 a4 f1 5a bd ba 8d 8c bd 9a 02 42 3d 7f 1d 5f bd
       -0.053453103 -0.0686297 0.047365762 -0.05447149
000300 f9 f1 92 3d c4 36 fb 3c ab 0b ba bd 46 db df bd
       0.07175059 0.030665763 -0.09084257 -0.10930495
000310 f9 c8 a3 3d d0 6b aa bd a6 a7 95 3c 65 1f b2 3d
       0.07997317 -0.08321345 0.018268418 0.08697394
000320 df 70 b8 3d d5 40 40 3d c5 f7 05 bc b6 1b 83 3d
       0.090059035 0.04693683 -0.008176749 0.0640177
000330 94 8e 6a bd 9b 8c b7 3d 68 90 e7 bb f2 f1 ff 3b
       -0.05726488 0.08962365 -0.007066775 0.0078108246
000340 5d 48 21 bc a7 00 b9 3c 29 9a 9a bc 06 52 62 bb
       -0.009843913 0.022583319 -0.018872337 -0.0034533753
000350 37 7f 9a bd 2e cc 5b 3b af 4a 9c 3c 62 42 26 bd
       -0.075437956 0.0033538449 0.01907858 -0.04059065
000360 88 21 0e bd 66 82 46 3d 18 b2 89 bd ad 9f 68 bd
       -0.034699947 0.0484642 -0.06723422 -0.056792904
000370 1e b1 9d bd d7 e8 97 3d 15 37 95 bd f6 56 8c bd
       -0.07699798 0.074174576 -0.07285897 -0.06852524
000380 a2 8c b1 3d 5a e6 10 ba 90 23 bd bd dd 8d ba bb
       0.08669402 -0.0005527489 -0.09235299 -0.005693181
000390 d6 04 d5 3d 3b 48 aa bc 16 da 35 3d 18 a1 9d bd
       0.10401313 -0.020786395 0.044397436 -0.07696742
0003a0 71 2b 67 3d bb 25 e2 bd c1 62 4b 3d 8e bc 9e bc
       0.056437913 -0.11042353 0.049654726 -0.01937702
0003b0 79 4a 2f 3b 24 3c a1 bd 97 e3 df bd 73 bb 14 bd
       0.002674727 -0.07872799 -0.10932081 -0.036311578

bias_hh_l0 f4 [240]
000000 02 a1 64 bd f1 3f 02 bd e2 fc 1d 3d 11 f1 3a 3d
       -0.05581761 -0.03179926 0.038571246 0.045640055
000010 15 b1 8f bc b8 b4 e2 bc e2 1e 86 3c b9 22 65 3d
       -0.017540494 -0.027674064 0.016372148 0.055941317
000020 8b 18 ad 3d 69 28 67 bd dc ae 1e bd 98 a7 94 bc
       0.08451947 -0.056435023 -0.038740978 -0.018146321
000030 e2 26 8f 3c 18 4f 97 b9 c3 82 9c 39 1c 51 ff bc
       0.017474595 -0.00028859894 0.00029852064 -0.031166606
000040 68 02 44 bd c8 44 26 3c 06 7e f1 bc c4 22 f4 3b
       -0.047853857 0.010148235 -0.029479038 0.0074504334
000050 6e 9f 56 bc 16 52 28 3d f0 9c cf bc 60 e9 32 3c
       -0.013099534 0.04109391 -0.025343388 0.010919899
000060 d9 36 02 bd b3 0d b5 3b f0 80 c4 bc c2 ea 2a bd
       -0.031790588 0.0055253147 -0.023987263 -0.04172779
000070 6e 22 ab 3d c4 fd 48 bd a7 6f be 3c 19 f3 a3 3c
       0.08356176 -0.049070135 0.0232466 0.020013379
000080 46 04 e4 bc 51 64 03 bc 8e fe d5 bc ce 31 3c bc
       -0.027834069 -0.008019523 -0.026122358 -0.011486484
000090 b7 2d 24 bd 02 a3 7b bd 78 0b 4e bc ed c0 ac bc
       -0.04008266 -0.061434753 -0.012575977 -0.021088088
0000a0 72 3a fe 3c d1 b6 9d 3c 7e 66 01 3c 26 98 95 bd
       0.031033728 0.019252213 0.007897971 -0.07304411
0000b0 71 a3 01 bc 8c e1 01 3d b5 73 4e 3d 50 ba 1d bd
       -0.007912503 0.03170924 0.050403316 -0.03850776
0000c0 84 be bf bc 4d e6 f0 bc d3 a6 8b bd fe b0 bc bd
       -0.023406275 -0.029406691 -0.068189286 -0.09213446
0000d0 0a 8b 58 bb a5 05 d6 bc 85 7c 92 3c 6a e0 34 bd
       -0.0033041858 -0.026125738 0.017881641 -0.04415933
0000e0 a1 c4 00 bd e5 20 88 bd 8d aa 94 bb 75 c5 6c bd
       -0.03143752 -0.06646899 -0.004536933 -0.057805497
0000f0 48 0b bd bc 01 75 22 3d 90 8b e8 3c ba 99 1a bd
       -0.023076668 0.039662365 0.028386861 -0.03774426
000100 f2 ad 8c 3c 99 62 fd 3c c4 a9 3d 3d 8c e3 ae 3c
       0.017172787 0.030930804 0.04630448 0.021348737
000110 46 27 d3 3c 95 cf 0a 3c 1a 46 17 3d 18 9d 92 bd
       0.025775563 0.008472343 0.03693209 -0.071588695
000120 90 1d 8c 3d 6e 8f 08 bd 77 29 16 3d b5 65 b8 3c
       0.06841576 -0.03333991 0.036660638 0.022509435
000130 99 1b 5a 3d f0 27 fd 3b 47 0d 20 bb d2 9d 1f 3d
       0.053248975 0.007725708 -0.0024421976 0.03896887
000140 4f ad 10 bd b5 3a 05 3d d4 59 02 bb 5b b7 f0 3a
       -0.03532153 0.03252669 -0.0019889968 0.0018365191
000150 aa b1 53 bc b6 08 f1 3c 08 e1 4c bc e7 40 19 3c
       -0.012920776 0.029423099 -0.0125048235 0.009353853
000160 07 6d d0 3c 8e 34 c8 bc f3 e5 9d bd 21 eb 53 bd
       0.025442613 -0.024439123 -0.07709875 -0.05173791
000170 f6 e1 31 bd 36 4f d0 3c bd 30 5c bc 2e 6a c9 bc
       -0.043428384 0.025428396 -0.0134393545 -0.024586763
000180 64 60 a2 3c f1 a7 ed 3c 61 45 9f 3d 47 b3 6a bc
       0.019821353 0.029010745 0.07776905 -0.01432497
000190 68 39 dc 3b a8 17 50 bb 5d ed de bc bd 67 47 3d
       0.0067207105 -0.0031752381 -0.027212793 0.048682917
0001a0 02 cd 55 3d 1f 10 47 bd a7 f9 19 bd 8a 29 c8 3b
       0.052197464 -0.04859936 -0.037591603 0.0061084675
0001b0 b2 03 8a bd b1 58 7d bb e1 d6 ab 3b fa 91 32 3d
       -0.06738986 -0.00386576 0.0052441214 0.043596245
0001c0 e2 26 38 bd f4 7c 98 3c 30 97 c7 3c 8a a3 6f bd
       -0.044958957 0.01861427 0.024364084 -0.058505572
0001d0 e2 76 97 3d 49 a8 c9 bc c7 34 60 bd 36 99 ed 3b
       0.07395722 -0.024616377 -0.054737832 0.00725093
0001e0 98 73 8f 3b 26 ff a2 3d 31 4b 9f 3d af 9b d3 bc
       0.0043777935 0.07958822 0.077780135 -0.025831072
0001f0 5f 6d 4c 3c 5d 3b 68 bc ac 01 61 bd 8f a5 45 3c
       0.012477248 -0.01417431 -0.054933235 0.012063398
000200 fd 2c 20 bd a6 85 71 3a c3 53 1a 3b 2c 88 12 3d
       -0.039105404 0.00092133356 0.002354846 0.035774395
000210 9f 61 24 3d 93 a3 97 bd a1 a1 36 bd 2b 67 c3 3c
       0.04013216 -0.07404246 -0.044587735 0.023852905
000220 35 e7 23 bd 6e be 7b 3d e9 52 2e 3b 78 be cf bb
       -0.040015418 0.061460905 0.0026599711 -0.0063398443
000230 bd 57 1a bc 0e d0 02 bd dd bc 65 3c 09 28 31 bd
       -0.0094203325 -0.031936698 0.014022079 -0.04325107
000240 dd 56 9d 3c f2 94 27 bc 4d fa fd 3c 0a 6b 10 bc
       0.019206459 -0.010228382 0.031003142 -0.008814583
000250 55 bb b0 bc e5 54 45 bd 4d 1d bd bc 33 28 20 bd
       -0.021573702 -0.048176665 -0.02308526 -0.039100837
000260 42 cc 15 bd a5 de 34 bc 0d 50 95 3d 99 81 4d 3d
       -0.03657175 -0.011039411 0.07290659 0.050172422
000270 77 3f 2f bd 0f af b1 bc 9d 6b af bc 28 77 a8 3c
       -0.042785134 -0.02168992 -0.021413619 0.02056463
000280 eb 24 76 3d 9b e0 8f 3d d2 3f b0 bc 25 81 54 3b
       0.0600938 0.07025262 -0.021514807 0.003242561
000290 39 9f 1e 3d 96 8f 06 3c d2 29 87 bd ae e2 d7 3c
       0.038726065 0.0082129445 -0.065997735 0.026353206
0002a0 f9 eb ab 3d be c2 8f bd 24 a1 c4 bc 90 3a a8 bd
       0.083946176 -0.07019566 -0.02400262 -0.08214295
0002b0 19 44 5f 3d 88 01 08 bd 3c b5 4b 3c 9c 03 cf 38
       0.054508302 -0.033204585 0.012433346 9.8712015e-05
0002c0 fe e0 9e 3c c8 28 35 bd db 89 dd bd 21 4b 3f 3d
       0.019394394 -0.044228345 -0.108173095 0.046702508
0002d0 4a b5 80 3d b8 fb 26 3d 85 9e c6 3c 35 c0 15 bc
       0.06284578 0.0407674 0.02424551 -0.009140064
0002e0 5a f9 bd 3d e8 96 63 b7 f3 f1 bc bc 1c c6 85 3d
       0.09276076 -1.356539e-05 -0.02306459 0.06531927
0002f0 ad 3b c4 3d 33 67 92 3d 01 df 62 bc 0d e7 ff bc
       0.09581695 0.0714859 -0.013847114 -0.031238103
000300 e6 ff ad bd bc 63 99 bd de 75 d9 3d da 46 50 3d
       -0.084960744 -0.07489726 0.106181845 0.05084882
000310 f9 71 ae 3d 06 a6 c2 bd f2 1d 65 3d a4 b0 9a 3d
       0.08517832 -0.09504323 0.05593676 0.07553223
000320 a4 cb dc bd 7b 0d 43 3d 85 53 21 bd 50 52 50 bc
       -0.10781029 0.047620278 -0.03938629 -0.012714937
000330 21 de 64 bd 23 b2 87 3d 44 bb 4d bd 55 6a 82 bd
       -0.0558759 0.06625774 -0.05022742 -0.063679375
000340 e7 71 a1 bd 66 a0 cb 3d 2c aa e3 3c 68 e9 3a bb
       -0.07883053 0.09942703 0.027791105 -0.0028520469
000350 c0 fd 26 3d 6e d5 17 3d 89 e5 46 bd e0 58 12 bd
       0.04076934 0.037068777 -0.048558746 -0.03572929
000360 10 20 10 bd 5c 7f 9e bd 5c 92 a5 3d ba 49 35 bc
       -0.035186827 -0.077391356 0.080845565 -0.011064941
000370 dc cd 94 bd bb eb 85 3d b3 22 09 3b 52 99 c3 bd
       -0.07265827 0.06539103 0.0020925223 -0.09550728
000380 72 c6 be bd 22 22 47 3d 92 8c c0 3c 16 5f 94 bd
       -0.09315194 0.048616536 0.02350453 -0.07244699
000390 69 f1 93 3d 25 8e 1d 3d 9b af 6a bd f0 b6 2a bd
       0.0722378 0.038465638 -0.057296377 -0.04167837
0003a0 2d ef b4 3d a4 f6 c4 bd b3 6b 6e 3d a5 0d a2 bd
       0.08834682 -0.096173555 0.05820818 -0.07912759
0003b0 7b 10 cc bd 47 c9 97 3d 7b a0 29 bc 2f 53 36 bd
       -0.09964081 0.074114375 -0.010353203 -0.044512924

weight_ih_l1 f4 [240, 80]
000000 e9 20 91 39 51 b7 d3 3b f0 9b 03 3c 40 86 b3 3c
       0.00027681075 0.006461062 0.008032784 0.021914601
000010 87 4f d1 39 05 31 9b 3c 5d 77 28 bb 9b c9 00 3c
       0.0003992284 0.018944273 -0.0025705912 0.0078605665
000020 5a 1f 60 3c dc d4 8c ba 89 17 d2 bb 4b e4 07 bb
       0.01367935 -0.0010744589 -0.006411497 -0.0020735438
000030 51 9b 89 bb 9c 1d 89 bb c8 a0 a7 bc ea 5b 64 ba
       -0.0041994234 -0.004184438 -0.020462409 -0.0008711206
000040 ec 9c 5f bc a8 7b ed bb 3e e7 0a 3c 15 20 97 bc
       -0.013648253 -0.007247407 0.008477984 -0.018447915
000050 d0 66 92 ba f2 2a 02 bb f1 ba 25 bc a1 54 88 bc
       -0.0011169557 -0.0019862023 -0.010115371 -0.016641917
000060 3f e7 29 3b 64 f7 ad bc 98 3f aa ba 6b 3b ce bc
       0.0025925187 -0.02123613 -0.0012988923 -0.025174817
000070 d6 84 84 bc 60 ce 2d 3b 3c ac c0 3b 23 8b d8 bb
       -0.016176622 0.0026520714 0.005879907 -0.0066083833
000080 e4 c1 4a 3b 92 4d a2 38 f8 2a 05 bc 7f f5 13 bc
       0.0030938322 7.7392106e-05 -0.00812792 -0.009030699
000090 c5 33 22 ba 85 78 d8 3b 0d 39 19 bb 29 ed dd bb
       -0.0006187524 0.006606164 -0.0023379952 -0.0067726565
0000a0 f8 50 ea ba fd cb 0e 3c f8 5c a0 3c 24 a9 15 bb
       -0.0017876914 0.008715627 0.019575581 -0.0022836411
0000b0 2e 4f cc bc 1f cb 24 3c f3 75 b0 bb 70 af 1a bb
       -0.0249401 0.0100581935 -0.0053851544 -0.0023603104
0000c0 a2 b6 7a 3b cd 1a 08 bc f1 a1 11 bb d8 19 a7 3b
       0.003825583 -0.008307171 -0.0022221769 0.0050995164
0000d0 2d 36 7f bb de 71 ab bc 98 79 29 bc 00 e0 33 bb
       -0.0038942203 -0.02092832 -0.010343932 -0.0027446747
0000e0 8c a8 75 3a e0 ed 33 bc 7d 68 01 3c 47 a8 3c 3b
       0.0009371124 -0.010982007 0.007898447 0.0028786825
0000f0 fc f2 1c bc b9 4c 9d bb d7 08 c8 3b cb ed 84 bc
       -0.009579416 -0.004800406 0.0061045694 -0.01622667
000100 fe d7 12 3a ab 45 c1 bb 6b 70 5f bb 75 d7 db 3a
       0.00056016434 -0.0058981976 -0.0034094106 0.0016772585
000110 d1 d9 ab bc 2e c2 96 bb ac eb 84 bc 1b 00 6a 3c
       -0.020977886 -0.0046007847 -0.016225658 0.014282252
000120 55 93 88 bc 6e f5 73 bc e3 81 01 3b 98 bd 9c 3b
       -0.016671816 -0.014890058 0.0019761256 0.0047833435
000130 3d dc dd ba cf 6c c0 bb 12 31 f6 3b 70 51 52 bb
       -0.0016926598 -0.005872346 0.007513174 -0.0032091998
000140 6d 0a 59 bc fa a0 e3 3c 11 c1 a7 bc dd 5a 15 3d
       -0.013247115 0.02778672 -0.020477803 0.036463607
000150 20 20 8b bc 4f 2f 93 3b 66 d3 8c bb 18 56 72 3c
       -0.016983092 0.0044917236 -0.0042976616 0.014791034
000160 07 ab c4 bc 6e dd 58 bb 27 16 70 bc 1b 3e f7 39
       -0.024007333 -0.0033090967 -0.014653719 0.00047157783
000170 85 2e 04 bc 87 9f 12 3d 3e ee 0c bd 6c 73 48 3c
       -0.008067732 0.03579667 -0.034406893 0.01223455
000180 27 42 8d ba d2 f4 81 bc 54 31 93 3c d3 2e 87 bc
       -0.0010777161 -0.01586381 0.017967857 -0.01650182
000190 f7 27 4b 3c 20 fa 70 3b b5 87 8c bc 04 61 2a 3d
       0.012399665 0.003677018 -0.017154554 0.041596428
0001a0 62 49 0b 3d 22 a2 36 bd f7 f1 e0 bc a7 c6 19 bd
       0.03400553 -0.044588216 -0.027459128 -0.037542965
0001b0 0e bf da 3c 8e 73 a0 3a 45 c5 c6 bb 87 ab b1 3b
       0.02670243 0.0012241469 -0.006065997 0.005422059
0001c0 e7 22 7a 39 a2 29 a1 bc cb 86 74 3c 59 d5 82 3b
       0.0002385486 -0.019673172 0.014924715 0.003992718
0001d0 c5 ed 95 bc 79 d1 f1 3b c6 f3 a1 3c fe 92 c9 3b
       -0.018301854 0.0073797074 0.01976956 0.006151556
0001e0 bb a4 90 3b 34 aa b7 3b 2b fe 05 bc c3 fa f0 3b
       0.0044141687 0.0056050066 -0.008178274 0.007354112
0001f0 09 d6 90 3c a5 da 09 3c d5 58 cc 3c f7 1f 32 3b
       0.017680185 0.008413945 0.024944702 0.0027179697
000200 83 d0 18 bc ce 7a 75 bb ad 6a da 3b 8a 4c f8 3a
       -0.009327057 -0.003745723 0.006665549 0.0018943709
000210 47 29 85 bb e8 38 d0 bb a8 89 fc bb 56 cb af 3c
       -0.0040637585 -0.00635444 -0.0077068396 0.021459263
000220 bb 9d 32 bc 9e d0 5b bc d2 07 91 3c 0a 13 58 3c
       -0.010901864 -0.013416437 0.017703924 0.013188133
000230 ed 05 4f 3c 7b d7 d1 bc 97 6a 6d 3b 7c 35 34 3d
       0.01263569 -0.025615444 0.0036226863 0.04399632
000240 0f 4e 15 3c 79 34 c4 3c e3 d0 66 bc f2 ed b3 bc
       0.009112849 0.023950802 -0.014087888 -0.021964047
000250 4d 41 5f bb b1 04 bc bc dc 33 2d bc ca 20 bf bb
       -0.0034066022 -0.022951456 -0.010571446 -0.005832766
000260 03 79 ec bb 5a 2b 7c bc cb 76 76 3b 9e 3d b2 3c
       -0.007216574 -0.015391195 0.0037607427 0.021757897
000270 3c a7 98 3c 2c 35 4a 3c 2b 98 3a bd bd be d4 3a
       0.018634431 0.012341779 -0.045555275 0.0016231161
000280 e5 83 9a 3b ea b0 92 3c 87 35 97 3c 43 d4 a7 b8
       0.00471543 0.017906625 0.018458141 -8.0027174e-05
000290 27 a2 1d 3b 96 36 68 bc 77 45 dc 3a 0d d2 b6 3c
       0.002405295 -0.014173171 0.001680537 0.022316957
0002a0 1a 58 99 3c 6e 58 9f 3c 35 85 b9 ba a8 75 86 3a
       0.018718768 0.019451346 -0.0014154079 0.0010258453
0002b0 48 62 be bb 3d eb c2 3c 91 59 ed bb c8 0c 50 3b
       -0.005810056 0.023793811 -0.007243343 0.00317459
0002c0 bd 6f d8 bc 38 d3 6b bc f3 76 2d 3c a8 22 bd 3b
       -0.026420468 -0.01439362 0.010587442 0.0057719536
0002d0 97 46 85 bb 42 7c 62 bc df ed 0f 3c 50 66 f3 3b
       -0.004067253 -0.013823571 0.00878474 0.007427968
0002e0 74 d0 6e bc 38 a6 d9 3c 7b 66 fe 3b 03 e4 f5 3c
       -0.014576066 0.026568517 0.0077636815 0.030015951
0002f0 91 63 a5 3c c3 d6 11 bc db 20 2b 3c f0 79 67 3c
       0.020189079 -0.008901301 0.010444845 0.014128193
000300 f8 ab d8 3b de 18 a5 3c ad 00 79 bc 34 bf 2c 3c
       0.006612297 0.02015346 -0.015197915 0.010543633
000310 67 a0 08 bc f1 c6 87 bc 92 94 1f bd 58 fe 83 3c
       -0.008339024 -0.016574355 -0.038960047 0.016112491
000320 c8 dd 26 3c 1d 9f 83 bc 78 76 e8 bc d6 33 14 3c
       0.010184713 -0.016067082 -0.028376803 0.009045562
000330 7f 2c 6b bb 9d 86 25 3c 35 81 b2 bb 37 a0 94 39
       -0.0035884676 0.010102895 -0.0054475316 0.0002834813
000340 08 88 d9 3b a8 cc 42 bc 85 24 08 3b 62 71 ab bb
       0.0066385306 -0.011889614 0.002077372 -0.005232022
000350 ce ed 04 3c 47 51 76 3c f3 cf df bb 52 48 20 3b
       0.008113338 0.0150340265 -0.0068302094 0.0024457169
000360 90 ee 0f 3d 79 42 a0 3c 90 f0 43 ba 1d 12 e6 bc
       0.03513962 0.019562947 -0.0007474506 -0.028084809
000370 c8 00 be bc aa a8 2a 3c a6 9f f0 bb dd 2c fe bc
       -0.023193732 0.010416189 -0.0073432503 -0.031027252
000380 03 b9 54 3a 31 13 14 3d d0 00 7d bc 16 01 18 3c
       0.0008114727 0.036151115 -0.015442088 0.009277603
000390 20 b4 9b 3c 2c 27 c0 bb 21 5a 13 bd 3b c3 dd 3b
       0.019006789 -0.0058640447 -0.035974625 0.006767658
0003a0 31 ef db bb 8b e5 0b 3d 09 de 05 3d 3b 08 d7 bc
       -0.0067118634 0.034154456 0.032682452 -0.026249042
0003b0 e3 ce 6a bb 03 fc 5c 3c 1e 73 57 bc 5d 66 94 3a
       -0.003582888 0.013487819 -0.013150005 0.001132201
0003c0 74 21 5c bb 69 b8 9c bc eb 75 0f 3c 60 0a b6 3c
       -0.0033589276 -0.019130902 0.008756141 0.022221744
0003d0 d9 b1 56 3c a9 1d 83 bd 6d ef f1 3c 53 cc 2a 3d
       0.013103926 -0.064021416 0.029533112 0.041698765
0003e0 eb 56 c2 b9 e8 ac 4b 3c 70 e9 10 3d b7 89 48 bd
       -0.00037067322 0.012431361 0.035378873 -0.04895946
0003f0 a5 02 83 ba f5 12 af bc 1f 31 41 3d 12 b1 b2 3b
       -0.0009995295 -0.021371344 0.047165986 0.0054532373
